{
  "nodes": [
    {
      "op": "null", 
      "name": "data", 
      "inputs": []
    }, 
    {
      "op": "null", 
      "name": "bn_data_gamma", 
      "attr": {
        "eps": "2e-05", 
        "fix_gamma": "True", 
        "momentum": "0.9"
      }, 
      "inputs": []
    }, 
    {
      "op": "null", 
      "name": "bn_data_beta", 
      "attr": {
        "eps": "2e-05", 
        "fix_gamma": "True", 
        "momentum": "0.9"
      }, 
      "inputs": []
    }, 
    {
      "op": "null", 
      "name": "bn_data_moving_mean", 
      "attr": {
        "__init__": "[\"zero\", {}]", 
        "eps": "2e-05", 
        "fix_gamma": "True", 
        "momentum": "0.9"
      }, 
      "inputs": []
    }, 
    {
      "op": "null", 
      "name": "bn_data_moving_var", 
      "attr": {
        "__init__": "[\"one\", {}]", 
        "eps": "2e-05", 
        "fix_gamma": "True", 
        "momentum": "0.9"
      }, 
      "inputs": []
    }, 
    {
      "op": "BatchNorm", 
      "name": "bn_data", 
      "attr": {
        "eps": "2e-05", 
        "fix_gamma": "True", 
        "momentum": "0.9"
      }, 
      "inputs": [[0, 0, 0], [1, 0, 0], [2, 0, 0], [3, 0, 1], [4, 0, 1]]
    }, 
    {
      "op": "null", 
      "name": "conv0_weight", 
      "attr": {
        "kernel": "(3, 3)", 
        "no_bias": "True", 
        "num_filter": "64", 
        "pad": "(1, 1)", 
        "stride": "(1, 1)", 
        "workspace": "256"
      }, 
      "inputs": []
    }, 
    {
      "op": "Convolution", 
      "name": "conv0", 
      "attr": {
        "kernel": "(3, 3)", 
        "no_bias": "True", 
        "num_filter": "64", 
        "pad": "(1, 1)", 
        "stride": "(1, 1)", 
        "workspace": "256"
      }, 
      "inputs": [[5, 0, 0], [6, 0, 0]]
    }, 
    {
      "op": "null", 
      "name": "stage1_unit1_bn1_gamma", 
      "attr": {
        "eps": "2e-05", 
        "fix_gamma": "False", 
        "momentum": "0.9"
      }, 
      "inputs": []
    }, 
    {
      "op": "null", 
      "name": "stage1_unit1_bn1_beta", 
      "attr": {
        "eps": "2e-05", 
        "fix_gamma": "False", 
        "momentum": "0.9"
      }, 
      "inputs": []
    }, 
    {
      "op": "null", 
      "name": "stage1_unit1_bn1_moving_mean", 
      "attr": {
        "__init__": "[\"zero\", {}]", 
        "eps": "2e-05", 
        "fix_gamma": "False", 
        "momentum": "0.9"
      }, 
      "inputs": []
    }, 
    {
      "op": "null", 
      "name": "stage1_unit1_bn1_moving_var", 
      "attr": {
        "__init__": "[\"one\", {}]", 
        "eps": "2e-05", 
        "fix_gamma": "False", 
        "momentum": "0.9"
      }, 
      "inputs": []
    }, 
    {
      "op": "BatchNorm", 
      "name": "stage1_unit1_bn1", 
      "attr": {
        "eps": "2e-05", 
        "fix_gamma": "False", 
        "momentum": "0.9"
      }, 
      "inputs": [[7, 0, 0], [8, 0, 0], [9, 0, 0], [10, 0, 1], [11, 0, 1]]
    }, 
    {
      "op": "Activation", 
      "name": "stage1_unit1_relu1", 
      "attr": {"act_type": "relu"}, 
      "inputs": [[12, 0, 0]]
    }, 
    {
      "op": "null", 
      "name": "stage1_unit1_conv1_weight", 
      "attr": {
        "kernel": "(3, 3)", 
        "no_bias": "True", 
        "num_filter": "64", 
        "pad": "(1, 1)", 
        "stride": "(1, 1)", 
        "workspace": "256"
      }, 
      "inputs": []
    }, 
    {
      "op": "Convolution", 
      "name": "stage1_unit1_conv1", 
      "attr": {
        "kernel": "(3, 3)", 
        "no_bias": "True", 
        "num_filter": "64", 
        "pad": "(1, 1)", 
        "stride": "(1, 1)", 
        "workspace": "256"
      }, 
      "inputs": [[13, 0, 0], [14, 0, 0]]
    }, 
    {
      "op": "null", 
      "name": "stage1_unit1_bn2_gamma", 
      "attr": {
        "eps": "2e-05", 
        "fix_gamma": "False", 
        "momentum": "0.9"
      }, 
      "inputs": []
    }, 
    {
      "op": "null", 
      "name": "stage1_unit1_bn2_beta", 
      "attr": {
        "eps": "2e-05", 
        "fix_gamma": "False", 
        "momentum": "0.9"
      }, 
      "inputs": []
    }, 
    {
      "op": "null", 
      "name": "stage1_unit1_bn2_moving_mean", 
      "attr": {
        "__init__": "[\"zero\", {}]", 
        "eps": "2e-05", 
        "fix_gamma": "False", 
        "momentum": "0.9"
      }, 
      "inputs": []
    }, 
    {
      "op": "null", 
      "name": "stage1_unit1_bn2_moving_var", 
      "attr": {
        "__init__": "[\"one\", {}]", 
        "eps": "2e-05", 
        "fix_gamma": "False", 
        "momentum": "0.9"
      }, 
      "inputs": []
    }, 
    {
      "op": "BatchNorm", 
      "name": "stage1_unit1_bn2", 
      "attr": {
        "eps": "2e-05", 
        "fix_gamma": "False", 
        "momentum": "0.9"
      }, 
      "inputs": [[15, 0, 0], [16, 0, 0], [17, 0, 0], [18, 0, 1], [19, 0, 1]]
    }, 
    {
      "op": "Activation", 
      "name": "stage1_unit1_relu2", 
      "attr": {"act_type": "relu"}, 
      "inputs": [[20, 0, 0]]
    }, 
    {
      "op": "null", 
      "name": "stage1_unit1_conv2_weight", 
      "attr": {
        "kernel": "(3, 3)", 
        "no_bias": "True", 
        "num_filter": "64", 
        "pad": "(1, 1)", 
        "stride": "(1, 1)", 
        "workspace": "256"
      }, 
      "inputs": []
    }, 
    {
      "op": "Convolution", 
      "name": "stage1_unit1_conv2", 
      "attr": {
        "kernel": "(3, 3)", 
        "no_bias": "True", 
        "num_filter": "64", 
        "pad": "(1, 1)", 
        "stride": "(1, 1)", 
        "workspace": "256"
      }, 
      "inputs": [[21, 0, 0], [22, 0, 0]]
    }, 
    {
      "op": "null", 
      "name": "stage1_unit1_sc_weight", 
      "attr": {
        "kernel": "(1, 1)", 
        "no_bias": "True", 
        "num_filter": "64", 
        "stride": "(1, 1)", 
        "workspace": "256"
      }, 
      "inputs": []
    }, 
    {
      "op": "Convolution", 
      "name": "stage1_unit1_sc", 
      "attr": {
        "kernel": "(1, 1)", 
        "no_bias": "True", 
        "num_filter": "64", 
        "stride": "(1, 1)", 
        "workspace": "256"
      }, 
      "inputs": [[13, 0, 0], [24, 0, 0]]
    }, 
    {
      "op": "elemwise_add", 
      "name": "_plus2560", 
      "inputs": [[23, 0, 0], [25, 0, 0]]
    }, 
    {
      "op": "null", 
      "name": "stage1_unit2_bn1_gamma", 
      "attr": {
        "eps": "2e-05", 
        "fix_gamma": "False", 
        "momentum": "0.9"
      }, 
      "inputs": []
    }, 
    {
      "op": "null", 
      "name": "stage1_unit2_bn1_beta", 
      "attr": {
        "eps": "2e-05", 
        "fix_gamma": "False", 
        "momentum": "0.9"
      }, 
      "inputs": []
    }, 
    {
      "op": "null", 
      "name": "stage1_unit2_bn1_moving_mean", 
      "attr": {
        "__init__": "[\"zero\", {}]", 
        "eps": "2e-05", 
        "fix_gamma": "False", 
        "momentum": "0.9"
      }, 
      "inputs": []
    }, 
    {
      "op": "null", 
      "name": "stage1_unit2_bn1_moving_var", 
      "attr": {
        "__init__": "[\"one\", {}]", 
        "eps": "2e-05", 
        "fix_gamma": "False", 
        "momentum": "0.9"
      }, 
      "inputs": []
    }, 
    {
      "op": "BatchNorm", 
      "name": "stage1_unit2_bn1", 
      "attr": {
        "eps": "2e-05", 
        "fix_gamma": "False", 
        "momentum": "0.9"
      }, 
      "inputs": [[26, 0, 0], [27, 0, 0], [28, 0, 0], [29, 0, 1], [30, 0, 1]]
    }, 
    {
      "op": "Activation", 
      "name": "stage1_unit2_relu1", 
      "attr": {"act_type": "relu"}, 
      "inputs": [[31, 0, 0]]
    }, 
    {
      "op": "null", 
      "name": "stage1_unit2_conv1_weight", 
      "attr": {
        "kernel": "(3, 3)", 
        "no_bias": "True", 
        "num_filter": "64", 
        "pad": "(1, 1)", 
        "stride": "(1, 1)", 
        "workspace": "256"
      }, 
      "inputs": []
    }, 
    {
      "op": "Convolution", 
      "name": "stage1_unit2_conv1", 
      "attr": {
        "kernel": "(3, 3)", 
        "no_bias": "True", 
        "num_filter": "64", 
        "pad": "(1, 1)", 
        "stride": "(1, 1)", 
        "workspace": "256"
      }, 
      "inputs": [[32, 0, 0], [33, 0, 0]]
    }, 
    {
      "op": "null", 
      "name": "stage1_unit2_bn2_gamma", 
      "attr": {
        "eps": "2e-05", 
        "fix_gamma": "False", 
        "momentum": "0.9"
      }, 
      "inputs": []
    }, 
    {
      "op": "null", 
      "name": "stage1_unit2_bn2_beta", 
      "attr": {
        "eps": "2e-05", 
        "fix_gamma": "False", 
        "momentum": "0.9"
      }, 
      "inputs": []
    }, 
    {
      "op": "null", 
      "name": "stage1_unit2_bn2_moving_mean", 
      "attr": {
        "__init__": "[\"zero\", {}]", 
        "eps": "2e-05", 
        "fix_gamma": "False", 
        "momentum": "0.9"
      }, 
      "inputs": []
    }, 
    {
      "op": "null", 
      "name": "stage1_unit2_bn2_moving_var", 
      "attr": {
        "__init__": "[\"one\", {}]", 
        "eps": "2e-05", 
        "fix_gamma": "False", 
        "momentum": "0.9"
      }, 
      "inputs": []
    }, 
    {
      "op": "BatchNorm", 
      "name": "stage1_unit2_bn2", 
      "attr": {
        "eps": "2e-05", 
        "fix_gamma": "False", 
        "momentum": "0.9"
      }, 
      "inputs": [[34, 0, 0], [35, 0, 0], [36, 0, 0], [37, 0, 1], [38, 0, 1]]
    }, 
    {
      "op": "Activation", 
      "name": "stage1_unit2_relu2", 
      "attr": {"act_type": "relu"}, 
      "inputs": [[39, 0, 0]]
    }, 
    {
      "op": "null", 
      "name": "stage1_unit2_conv2_weight", 
      "attr": {
        "kernel": "(3, 3)", 
        "no_bias": "True", 
        "num_filter": "64", 
        "pad": "(1, 1)", 
        "stride": "(1, 1)", 
        "workspace": "256"
      }, 
      "inputs": []
    }, 
    {
      "op": "Convolution", 
      "name": "stage1_unit2_conv2", 
      "attr": {
        "kernel": "(3, 3)", 
        "no_bias": "True", 
        "num_filter": "64", 
        "pad": "(1, 1)", 
        "stride": "(1, 1)", 
        "workspace": "256"
      }, 
      "inputs": [[40, 0, 0], [41, 0, 0]]
    }, 
    {
      "op": "elemwise_add", 
      "name": "_plus2561", 
      "inputs": [[42, 0, 0], [26, 0, 0]]
    }, 
    {
      "op": "null", 
      "name": "stage1_unit3_bn1_gamma", 
      "attr": {
        "eps": "2e-05", 
        "fix_gamma": "False", 
        "momentum": "0.9"
      }, 
      "inputs": []
    }, 
    {
      "op": "null", 
      "name": "stage1_unit3_bn1_beta", 
      "attr": {
        "eps": "2e-05", 
        "fix_gamma": "False", 
        "momentum": "0.9"
      }, 
      "inputs": []
    }, 
    {
      "op": "null", 
      "name": "stage1_unit3_bn1_moving_mean", 
      "attr": {
        "__init__": "[\"zero\", {}]", 
        "eps": "2e-05", 
        "fix_gamma": "False", 
        "momentum": "0.9"
      }, 
      "inputs": []
    }, 
    {
      "op": "null", 
      "name": "stage1_unit3_bn1_moving_var", 
      "attr": {
        "__init__": "[\"one\", {}]", 
        "eps": "2e-05", 
        "fix_gamma": "False", 
        "momentum": "0.9"
      }, 
      "inputs": []
    }, 
    {
      "op": "BatchNorm", 
      "name": "stage1_unit3_bn1", 
      "attr": {
        "eps": "2e-05", 
        "fix_gamma": "False", 
        "momentum": "0.9"
      }, 
      "inputs": [[43, 0, 0], [44, 0, 0], [45, 0, 0], [46, 0, 1], [47, 0, 1]]
    }, 
    {
      "op": "Activation", 
      "name": "stage1_unit3_relu1", 
      "attr": {"act_type": "relu"}, 
      "inputs": [[48, 0, 0]]
    }, 
    {
      "op": "null", 
      "name": "stage1_unit3_conv1_weight", 
      "attr": {
        "kernel": "(3, 3)", 
        "no_bias": "True", 
        "num_filter": "64", 
        "pad": "(1, 1)", 
        "stride": "(1, 1)", 
        "workspace": "256"
      }, 
      "inputs": []
    }, 
    {
      "op": "Convolution", 
      "name": "stage1_unit3_conv1", 
      "attr": {
        "kernel": "(3, 3)", 
        "no_bias": "True", 
        "num_filter": "64", 
        "pad": "(1, 1)", 
        "stride": "(1, 1)", 
        "workspace": "256"
      }, 
      "inputs": [[49, 0, 0], [50, 0, 0]]
    }, 
    {
      "op": "null", 
      "name": "stage1_unit3_bn2_gamma", 
      "attr": {
        "eps": "2e-05", 
        "fix_gamma": "False", 
        "momentum": "0.9"
      }, 
      "inputs": []
    }, 
    {
      "op": "null", 
      "name": "stage1_unit3_bn2_beta", 
      "attr": {
        "eps": "2e-05", 
        "fix_gamma": "False", 
        "momentum": "0.9"
      }, 
      "inputs": []
    }, 
    {
      "op": "null", 
      "name": "stage1_unit3_bn2_moving_mean", 
      "attr": {
        "__init__": "[\"zero\", {}]", 
        "eps": "2e-05", 
        "fix_gamma": "False", 
        "momentum": "0.9"
      }, 
      "inputs": []
    }, 
    {
      "op": "null", 
      "name": "stage1_unit3_bn2_moving_var", 
      "attr": {
        "__init__": "[\"one\", {}]", 
        "eps": "2e-05", 
        "fix_gamma": "False", 
        "momentum": "0.9"
      }, 
      "inputs": []
    }, 
    {
      "op": "BatchNorm", 
      "name": "stage1_unit3_bn2", 
      "attr": {
        "eps": "2e-05", 
        "fix_gamma": "False", 
        "momentum": "0.9"
      }, 
      "inputs": [[51, 0, 0], [52, 0, 0], [53, 0, 0], [54, 0, 1], [55, 0, 1]]
    }, 
    {
      "op": "Activation", 
      "name": "stage1_unit3_relu2", 
      "attr": {"act_type": "relu"}, 
      "inputs": [[56, 0, 0]]
    }, 
    {
      "op": "null", 
      "name": "stage1_unit3_conv2_weight", 
      "attr": {
        "kernel": "(3, 3)", 
        "no_bias": "True", 
        "num_filter": "64", 
        "pad": "(1, 1)", 
        "stride": "(1, 1)", 
        "workspace": "256"
      }, 
      "inputs": []
    }, 
    {
      "op": "Convolution", 
      "name": "stage1_unit3_conv2", 
      "attr": {
        "kernel": "(3, 3)", 
        "no_bias": "True", 
        "num_filter": "64", 
        "pad": "(1, 1)", 
        "stride": "(1, 1)", 
        "workspace": "256"
      }, 
      "inputs": [[57, 0, 0], [58, 0, 0]]
    }, 
    {
      "op": "elemwise_add", 
      "name": "_plus2562", 
      "inputs": [[59, 0, 0], [43, 0, 0]]
    }, 
    {
      "op": "null", 
      "name": "stage2_unit1_bn1_gamma", 
      "attr": {
        "eps": "2e-05", 
        "fix_gamma": "False", 
        "momentum": "0.9"
      }, 
      "inputs": []
    }, 
    {
      "op": "null", 
      "name": "stage2_unit1_bn1_beta", 
      "attr": {
        "eps": "2e-05", 
        "fix_gamma": "False", 
        "momentum": "0.9"
      }, 
      "inputs": []
    }, 
    {
      "op": "null", 
      "name": "stage2_unit1_bn1_moving_mean", 
      "attr": {
        "__init__": "[\"zero\", {}]", 
        "eps": "2e-05", 
        "fix_gamma": "False", 
        "momentum": "0.9"
      }, 
      "inputs": []
    }, 
    {
      "op": "null", 
      "name": "stage2_unit1_bn1_moving_var", 
      "attr": {
        "__init__": "[\"one\", {}]", 
        "eps": "2e-05", 
        "fix_gamma": "False", 
        "momentum": "0.9"
      }, 
      "inputs": []
    }, 
    {
      "op": "BatchNorm", 
      "name": "stage2_unit1_bn1", 
      "attr": {
        "eps": "2e-05", 
        "fix_gamma": "False", 
        "momentum": "0.9"
      }, 
      "inputs": [[60, 0, 0], [61, 0, 0], [62, 0, 0], [63, 0, 1], [64, 0, 1]]
    }, 
    {
      "op": "Activation", 
      "name": "stage2_unit1_relu1", 
      "attr": {"act_type": "relu"}, 
      "inputs": [[65, 0, 0]]
    }, 
    {
      "op": "null", 
      "name": "stage2_unit1_conv1_weight", 
      "attr": {
        "kernel": "(3, 3)", 
        "no_bias": "True", 
        "num_filter": "128", 
        "pad": "(1, 1)", 
        "stride": "(2, 2)", 
        "workspace": "256"
      }, 
      "inputs": []
    }, 
    {
      "op": "Convolution", 
      "name": "stage2_unit1_conv1", 
      "attr": {
        "kernel": "(3, 3)", 
        "no_bias": "True", 
        "num_filter": "128", 
        "pad": "(1, 1)", 
        "stride": "(2, 2)", 
        "workspace": "256"
      }, 
      "inputs": [[66, 0, 0], [67, 0, 0]]
    }, 
    {
      "op": "null", 
      "name": "stage2_unit1_bn2_gamma", 
      "attr": {
        "eps": "2e-05", 
        "fix_gamma": "False", 
        "momentum": "0.9"
      }, 
      "inputs": []
    }, 
    {
      "op": "null", 
      "name": "stage2_unit1_bn2_beta", 
      "attr": {
        "eps": "2e-05", 
        "fix_gamma": "False", 
        "momentum": "0.9"
      }, 
      "inputs": []
    }, 
    {
      "op": "null", 
      "name": "stage2_unit1_bn2_moving_mean", 
      "attr": {
        "__init__": "[\"zero\", {}]", 
        "eps": "2e-05", 
        "fix_gamma": "False", 
        "momentum": "0.9"
      }, 
      "inputs": []
    }, 
    {
      "op": "null", 
      "name": "stage2_unit1_bn2_moving_var", 
      "attr": {
        "__init__": "[\"one\", {}]", 
        "eps": "2e-05", 
        "fix_gamma": "False", 
        "momentum": "0.9"
      }, 
      "inputs": []
    }, 
    {
      "op": "BatchNorm", 
      "name": "stage2_unit1_bn2", 
      "attr": {
        "eps": "2e-05", 
        "fix_gamma": "False", 
        "momentum": "0.9"
      }, 
      "inputs": [[68, 0, 0], [69, 0, 0], [70, 0, 0], [71, 0, 1], [72, 0, 1]]
    }, 
    {
      "op": "Activation", 
      "name": "stage2_unit1_relu2", 
      "attr": {"act_type": "relu"}, 
      "inputs": [[73, 0, 0]]
    }, 
    {
      "op": "null", 
      "name": "stage2_unit1_conv2_weight", 
      "attr": {
        "kernel": "(3, 3)", 
        "no_bias": "True", 
        "num_filter": "128", 
        "pad": "(1, 1)", 
        "stride": "(1, 1)", 
        "workspace": "256"
      }, 
      "inputs": []
    }, 
    {
      "op": "Convolution", 
      "name": "stage2_unit1_conv2", 
      "attr": {
        "kernel": "(3, 3)", 
        "no_bias": "True", 
        "num_filter": "128", 
        "pad": "(1, 1)", 
        "stride": "(1, 1)", 
        "workspace": "256"
      }, 
      "inputs": [[74, 0, 0], [75, 0, 0]]
    }, 
    {
      "op": "null", 
      "name": "stage2_unit1_sc_weight", 
      "attr": {
        "kernel": "(1, 1)", 
        "no_bias": "True", 
        "num_filter": "128", 
        "stride": "(2, 2)", 
        "workspace": "256"
      }, 
      "inputs": []
    }, 
    {
      "op": "Convolution", 
      "name": "stage2_unit1_sc", 
      "attr": {
        "kernel": "(1, 1)", 
        "no_bias": "True", 
        "num_filter": "128", 
        "stride": "(2, 2)", 
        "workspace": "256"
      }, 
      "inputs": [[66, 0, 0], [77, 0, 0]]
    }, 
    {
      "op": "elemwise_add", 
      "name": "_plus2563", 
      "inputs": [[76, 0, 0], [78, 0, 0]]
    }, 
    {
      "op": "null", 
      "name": "stage2_unit2_bn1_gamma", 
      "attr": {
        "eps": "2e-05", 
        "fix_gamma": "False", 
        "momentum": "0.9"
      }, 
      "inputs": []
    }, 
    {
      "op": "null", 
      "name": "stage2_unit2_bn1_beta", 
      "attr": {
        "eps": "2e-05", 
        "fix_gamma": "False", 
        "momentum": "0.9"
      }, 
      "inputs": []
    }, 
    {
      "op": "null", 
      "name": "stage2_unit2_bn1_moving_mean", 
      "attr": {
        "__init__": "[\"zero\", {}]", 
        "eps": "2e-05", 
        "fix_gamma": "False", 
        "momentum": "0.9"
      }, 
      "inputs": []
    }, 
    {
      "op": "null", 
      "name": "stage2_unit2_bn1_moving_var", 
      "attr": {
        "__init__": "[\"one\", {}]", 
        "eps": "2e-05", 
        "fix_gamma": "False", 
        "momentum": "0.9"
      }, 
      "inputs": []
    }, 
    {
      "op": "BatchNorm", 
      "name": "stage2_unit2_bn1", 
      "attr": {
        "eps": "2e-05", 
        "fix_gamma": "False", 
        "momentum": "0.9"
      }, 
      "inputs": [[79, 0, 0], [80, 0, 0], [81, 0, 0], [82, 0, 1], [83, 0, 1]]
    }, 
    {
      "op": "Activation", 
      "name": "stage2_unit2_relu1", 
      "attr": {"act_type": "relu"}, 
      "inputs": [[84, 0, 0]]
    }, 
    {
      "op": "null", 
      "name": "stage2_unit2_conv1_weight", 
      "attr": {
        "kernel": "(3, 3)", 
        "no_bias": "True", 
        "num_filter": "128", 
        "pad": "(1, 1)", 
        "stride": "(1, 1)", 
        "workspace": "256"
      }, 
      "inputs": []
    }, 
    {
      "op": "Convolution", 
      "name": "stage2_unit2_conv1", 
      "attr": {
        "kernel": "(3, 3)", 
        "no_bias": "True", 
        "num_filter": "128", 
        "pad": "(1, 1)", 
        "stride": "(1, 1)", 
        "workspace": "256"
      }, 
      "inputs": [[85, 0, 0], [86, 0, 0]]
    }, 
    {
      "op": "null", 
      "name": "stage2_unit2_bn2_gamma", 
      "attr": {
        "eps": "2e-05", 
        "fix_gamma": "False", 
        "momentum": "0.9"
      }, 
      "inputs": []
    }, 
    {
      "op": "null", 
      "name": "stage2_unit2_bn2_beta", 
      "attr": {
        "eps": "2e-05", 
        "fix_gamma": "False", 
        "momentum": "0.9"
      }, 
      "inputs": []
    }, 
    {
      "op": "null", 
      "name": "stage2_unit2_bn2_moving_mean", 
      "attr": {
        "__init__": "[\"zero\", {}]", 
        "eps": "2e-05", 
        "fix_gamma": "False", 
        "momentum": "0.9"
      }, 
      "inputs": []
    }, 
    {
      "op": "null", 
      "name": "stage2_unit2_bn2_moving_var", 
      "attr": {
        "__init__": "[\"one\", {}]", 
        "eps": "2e-05", 
        "fix_gamma": "False", 
        "momentum": "0.9"
      }, 
      "inputs": []
    }, 
    {
      "op": "BatchNorm", 
      "name": "stage2_unit2_bn2", 
      "attr": {
        "eps": "2e-05", 
        "fix_gamma": "False", 
        "momentum": "0.9"
      }, 
      "inputs": [[87, 0, 0], [88, 0, 0], [89, 0, 0], [90, 0, 1], [91, 0, 1]]
    }, 
    {
      "op": "Activation", 
      "name": "stage2_unit2_relu2", 
      "attr": {"act_type": "relu"}, 
      "inputs": [[92, 0, 0]]
    }, 
    {
      "op": "null", 
      "name": "stage2_unit2_conv2_weight", 
      "attr": {
        "kernel": "(3, 3)", 
        "no_bias": "True", 
        "num_filter": "128", 
        "pad": "(1, 1)", 
        "stride": "(1, 1)", 
        "workspace": "256"
      }, 
      "inputs": []
    }, 
    {
      "op": "Convolution", 
      "name": "stage2_unit2_conv2", 
      "attr": {
        "kernel": "(3, 3)", 
        "no_bias": "True", 
        "num_filter": "128", 
        "pad": "(1, 1)", 
        "stride": "(1, 1)", 
        "workspace": "256"
      }, 
      "inputs": [[93, 0, 0], [94, 0, 0]]
    }, 
    {
      "op": "elemwise_add", 
      "name": "_plus2564", 
      "inputs": [[95, 0, 0], [79, 0, 0]]
    }, 
    {
      "op": "null", 
      "name": "stage2_unit3_bn1_gamma", 
      "attr": {
        "eps": "2e-05", 
        "fix_gamma": "False", 
        "momentum": "0.9"
      }, 
      "inputs": []
    }, 
    {
      "op": "null", 
      "name": "stage2_unit3_bn1_beta", 
      "attr": {
        "eps": "2e-05", 
        "fix_gamma": "False", 
        "momentum": "0.9"
      }, 
      "inputs": []
    }, 
    {
      "op": "null", 
      "name": "stage2_unit3_bn1_moving_mean", 
      "attr": {
        "__init__": "[\"zero\", {}]", 
        "eps": "2e-05", 
        "fix_gamma": "False", 
        "momentum": "0.9"
      }, 
      "inputs": []
    }, 
    {
      "op": "null", 
      "name": "stage2_unit3_bn1_moving_var", 
      "attr": {
        "__init__": "[\"one\", {}]", 
        "eps": "2e-05", 
        "fix_gamma": "False", 
        "momentum": "0.9"
      }, 
      "inputs": []
    }, 
    {
      "op": "BatchNorm", 
      "name": "stage2_unit3_bn1", 
      "attr": {
        "eps": "2e-05", 
        "fix_gamma": "False", 
        "momentum": "0.9"
      }, 
      "inputs": [[96, 0, 0], [97, 0, 0], [98, 0, 0], [99, 0, 1], [100, 0, 1]]
    }, 
    {
      "op": "Activation", 
      "name": "stage2_unit3_relu1", 
      "attr": {"act_type": "relu"}, 
      "inputs": [[101, 0, 0]]
    }, 
    {
      "op": "null", 
      "name": "stage2_unit3_conv1_weight", 
      "attr": {
        "kernel": "(3, 3)", 
        "no_bias": "True", 
        "num_filter": "128", 
        "pad": "(1, 1)", 
        "stride": "(1, 1)", 
        "workspace": "256"
      }, 
      "inputs": []
    }, 
    {
      "op": "Convolution", 
      "name": "stage2_unit3_conv1", 
      "attr": {
        "kernel": "(3, 3)", 
        "no_bias": "True", 
        "num_filter": "128", 
        "pad": "(1, 1)", 
        "stride": "(1, 1)", 
        "workspace": "256"
      }, 
      "inputs": [[102, 0, 0], [103, 0, 0]]
    }, 
    {
      "op": "null", 
      "name": "stage2_unit3_bn2_gamma", 
      "attr": {
        "eps": "2e-05", 
        "fix_gamma": "False", 
        "momentum": "0.9"
      }, 
      "inputs": []
    }, 
    {
      "op": "null", 
      "name": "stage2_unit3_bn2_beta", 
      "attr": {
        "eps": "2e-05", 
        "fix_gamma": "False", 
        "momentum": "0.9"
      }, 
      "inputs": []
    }, 
    {
      "op": "null", 
      "name": "stage2_unit3_bn2_moving_mean", 
      "attr": {
        "__init__": "[\"zero\", {}]", 
        "eps": "2e-05", 
        "fix_gamma": "False", 
        "momentum": "0.9"
      }, 
      "inputs": []
    }, 
    {
      "op": "null", 
      "name": "stage2_unit3_bn2_moving_var", 
      "attr": {
        "__init__": "[\"one\", {}]", 
        "eps": "2e-05", 
        "fix_gamma": "False", 
        "momentum": "0.9"
      }, 
      "inputs": []
    }, 
    {
      "op": "BatchNorm", 
      "name": "stage2_unit3_bn2", 
      "attr": {
        "eps": "2e-05", 
        "fix_gamma": "False", 
        "momentum": "0.9"
      }, 
      "inputs": [[104, 0, 0], [105, 0, 0], [106, 0, 0], [107, 0, 1], [108, 0, 1]]
    }, 
    {
      "op": "Activation", 
      "name": "stage2_unit3_relu2", 
      "attr": {"act_type": "relu"}, 
      "inputs": [[109, 0, 0]]
    }, 
    {
      "op": "null", 
      "name": "stage2_unit3_conv2_weight", 
      "attr": {
        "kernel": "(3, 3)", 
        "no_bias": "True", 
        "num_filter": "128", 
        "pad": "(1, 1)", 
        "stride": "(1, 1)", 
        "workspace": "256"
      }, 
      "inputs": []
    }, 
    {
      "op": "Convolution", 
      "name": "stage2_unit3_conv2", 
      "attr": {
        "kernel": "(3, 3)", 
        "no_bias": "True", 
        "num_filter": "128", 
        "pad": "(1, 1)", 
        "stride": "(1, 1)", 
        "workspace": "256"
      }, 
      "inputs": [[110, 0, 0], [111, 0, 0]]
    }, 
    {
      "op": "elemwise_add", 
      "name": "_plus2565", 
      "inputs": [[112, 0, 0], [96, 0, 0]]
    }, 
    {
      "op": "null", 
      "name": "stage2_unit4_bn1_gamma", 
      "attr": {
        "eps": "2e-05", 
        "fix_gamma": "False", 
        "momentum": "0.9"
      }, 
      "inputs": []
    }, 
    {
      "op": "null", 
      "name": "stage2_unit4_bn1_beta", 
      "attr": {
        "eps": "2e-05", 
        "fix_gamma": "False", 
        "momentum": "0.9"
      }, 
      "inputs": []
    }, 
    {
      "op": "null", 
      "name": "stage2_unit4_bn1_moving_mean", 
      "attr": {
        "__init__": "[\"zero\", {}]", 
        "eps": "2e-05", 
        "fix_gamma": "False", 
        "momentum": "0.9"
      }, 
      "inputs": []
    }, 
    {
      "op": "null", 
      "name": "stage2_unit4_bn1_moving_var", 
      "attr": {
        "__init__": "[\"one\", {}]", 
        "eps": "2e-05", 
        "fix_gamma": "False", 
        "momentum": "0.9"
      }, 
      "inputs": []
    }, 
    {
      "op": "BatchNorm", 
      "name": "stage2_unit4_bn1", 
      "attr": {
        "eps": "2e-05", 
        "fix_gamma": "False", 
        "momentum": "0.9"
      }, 
      "inputs": [[113, 0, 0], [114, 0, 0], [115, 0, 0], [116, 0, 1], [117, 0, 1]]
    }, 
    {
      "op": "Activation", 
      "name": "stage2_unit4_relu1", 
      "attr": {"act_type": "relu"}, 
      "inputs": [[118, 0, 0]]
    }, 
    {
      "op": "null", 
      "name": "stage2_unit4_conv1_weight", 
      "attr": {
        "kernel": "(3, 3)", 
        "no_bias": "True", 
        "num_filter": "128", 
        "pad": "(1, 1)", 
        "stride": "(1, 1)", 
        "workspace": "256"
      }, 
      "inputs": []
    }, 
    {
      "op": "Convolution", 
      "name": "stage2_unit4_conv1", 
      "attr": {
        "kernel": "(3, 3)", 
        "no_bias": "True", 
        "num_filter": "128", 
        "pad": "(1, 1)", 
        "stride": "(1, 1)", 
        "workspace": "256"
      }, 
      "inputs": [[119, 0, 0], [120, 0, 0]]
    }, 
    {
      "op": "null", 
      "name": "stage2_unit4_bn2_gamma", 
      "attr": {
        "eps": "2e-05", 
        "fix_gamma": "False", 
        "momentum": "0.9"
      }, 
      "inputs": []
    }, 
    {
      "op": "null", 
      "name": "stage2_unit4_bn2_beta", 
      "attr": {
        "eps": "2e-05", 
        "fix_gamma": "False", 
        "momentum": "0.9"
      }, 
      "inputs": []
    }, 
    {
      "op": "null", 
      "name": "stage2_unit4_bn2_moving_mean", 
      "attr": {
        "__init__": "[\"zero\", {}]", 
        "eps": "2e-05", 
        "fix_gamma": "False", 
        "momentum": "0.9"
      }, 
      "inputs": []
    }, 
    {
      "op": "null", 
      "name": "stage2_unit4_bn2_moving_var", 
      "attr": {
        "__init__": "[\"one\", {}]", 
        "eps": "2e-05", 
        "fix_gamma": "False", 
        "momentum": "0.9"
      }, 
      "inputs": []
    }, 
    {
      "op": "BatchNorm", 
      "name": "stage2_unit4_bn2", 
      "attr": {
        "eps": "2e-05", 
        "fix_gamma": "False", 
        "momentum": "0.9"
      }, 
      "inputs": [[121, 0, 0], [122, 0, 0], [123, 0, 0], [124, 0, 1], [125, 0, 1]]
    }, 
    {
      "op": "Activation", 
      "name": "stage2_unit4_relu2", 
      "attr": {"act_type": "relu"}, 
      "inputs": [[126, 0, 0]]
    }, 
    {
      "op": "null", 
      "name": "stage2_unit4_conv2_weight", 
      "attr": {
        "kernel": "(3, 3)", 
        "no_bias": "True", 
        "num_filter": "128", 
        "pad": "(1, 1)", 
        "stride": "(1, 1)", 
        "workspace": "256"
      }, 
      "inputs": []
    }, 
    {
      "op": "Convolution", 
      "name": "stage2_unit4_conv2", 
      "attr": {
        "kernel": "(3, 3)", 
        "no_bias": "True", 
        "num_filter": "128", 
        "pad": "(1, 1)", 
        "stride": "(1, 1)", 
        "workspace": "256"
      }, 
      "inputs": [[127, 0, 0], [128, 0, 0]]
    }, 
    {
      "op": "elemwise_add", 
      "name": "_plus2566", 
      "inputs": [[129, 0, 0], [113, 0, 0]]
    }, 
    {
      "op": "null", 
      "name": "stage3_unit1_bn1_gamma", 
      "attr": {
        "eps": "2e-05", 
        "fix_gamma": "False", 
        "momentum": "0.9"
      }, 
      "inputs": []
    }, 
    {
      "op": "null", 
      "name": "stage3_unit1_bn1_beta", 
      "attr": {
        "eps": "2e-05", 
        "fix_gamma": "False", 
        "momentum": "0.9"
      }, 
      "inputs": []
    }, 
    {
      "op": "null", 
      "name": "stage3_unit1_bn1_moving_mean", 
      "attr": {
        "__init__": "[\"zero\", {}]", 
        "eps": "2e-05", 
        "fix_gamma": "False", 
        "momentum": "0.9"
      }, 
      "inputs": []
    }, 
    {
      "op": "null", 
      "name": "stage3_unit1_bn1_moving_var", 
      "attr": {
        "__init__": "[\"one\", {}]", 
        "eps": "2e-05", 
        "fix_gamma": "False", 
        "momentum": "0.9"
      }, 
      "inputs": []
    }, 
    {
      "op": "BatchNorm", 
      "name": "stage3_unit1_bn1", 
      "attr": {
        "eps": "2e-05", 
        "fix_gamma": "False", 
        "momentum": "0.9"
      }, 
      "inputs": [[130, 0, 0], [131, 0, 0], [132, 0, 0], [133, 0, 1], [134, 0, 1]]
    }, 
    {
      "op": "Activation", 
      "name": "stage3_unit1_relu1", 
      "attr": {"act_type": "relu"}, 
      "inputs": [[135, 0, 0]]
    }, 
    {
      "op": "null", 
      "name": "stage3_unit1_conv1_weight", 
      "attr": {
        "kernel": "(3, 3)", 
        "no_bias": "True", 
        "num_filter": "256", 
        "pad": "(1, 1)", 
        "stride": "(2, 2)", 
        "workspace": "256"
      }, 
      "inputs": []
    }, 
    {
      "op": "Convolution", 
      "name": "stage3_unit1_conv1", 
      "attr": {
        "kernel": "(3, 3)", 
        "no_bias": "True", 
        "num_filter": "256", 
        "pad": "(1, 1)", 
        "stride": "(2, 2)", 
        "workspace": "256"
      }, 
      "inputs": [[136, 0, 0], [137, 0, 0]]
    }, 
    {
      "op": "null", 
      "name": "stage3_unit1_bn2_gamma", 
      "attr": {
        "eps": "2e-05", 
        "fix_gamma": "False", 
        "momentum": "0.9"
      }, 
      "inputs": []
    }, 
    {
      "op": "null", 
      "name": "stage3_unit1_bn2_beta", 
      "attr": {
        "eps": "2e-05", 
        "fix_gamma": "False", 
        "momentum": "0.9"
      }, 
      "inputs": []
    }, 
    {
      "op": "null", 
      "name": "stage3_unit1_bn2_moving_mean", 
      "attr": {
        "__init__": "[\"zero\", {}]", 
        "eps": "2e-05", 
        "fix_gamma": "False", 
        "momentum": "0.9"
      }, 
      "inputs": []
    }, 
    {
      "op": "null", 
      "name": "stage3_unit1_bn2_moving_var", 
      "attr": {
        "__init__": "[\"one\", {}]", 
        "eps": "2e-05", 
        "fix_gamma": "False", 
        "momentum": "0.9"
      }, 
      "inputs": []
    }, 
    {
      "op": "BatchNorm", 
      "name": "stage3_unit1_bn2", 
      "attr": {
        "eps": "2e-05", 
        "fix_gamma": "False", 
        "momentum": "0.9"
      }, 
      "inputs": [[138, 0, 0], [139, 0, 0], [140, 0, 0], [141, 0, 1], [142, 0, 1]]
    }, 
    {
      "op": "Activation", 
      "name": "stage3_unit1_relu2", 
      "attr": {"act_type": "relu"}, 
      "inputs": [[143, 0, 0]]
    }, 
    {
      "op": "null", 
      "name": "stage3_unit1_conv2_weight", 
      "attr": {
        "kernel": "(3, 3)", 
        "no_bias": "True", 
        "num_filter": "256", 
        "pad": "(1, 1)", 
        "stride": "(1, 1)", 
        "workspace": "256"
      }, 
      "inputs": []
    }, 
    {
      "op": "Convolution", 
      "name": "stage3_unit1_conv2", 
      "attr": {
        "kernel": "(3, 3)", 
        "no_bias": "True", 
        "num_filter": "256", 
        "pad": "(1, 1)", 
        "stride": "(1, 1)", 
        "workspace": "256"
      }, 
      "inputs": [[144, 0, 0], [145, 0, 0]]
    }, 
    {
      "op": "null", 
      "name": "stage3_unit1_sc_weight", 
      "attr": {
        "kernel": "(1, 1)", 
        "no_bias": "True", 
        "num_filter": "256", 
        "stride": "(2, 2)", 
        "workspace": "256"
      }, 
      "inputs": []
    }, 
    {
      "op": "Convolution", 
      "name": "stage3_unit1_sc", 
      "attr": {
        "kernel": "(1, 1)", 
        "no_bias": "True", 
        "num_filter": "256", 
        "stride": "(2, 2)", 
        "workspace": "256"
      }, 
      "inputs": [[136, 0, 0], [147, 0, 0]]
    }, 
    {
      "op": "elemwise_add", 
      "name": "_plus2567", 
      "inputs": [[146, 0, 0], [148, 0, 0]]
    }, 
    {
      "op": "null", 
      "name": "stage3_unit2_bn1_gamma", 
      "attr": {
        "eps": "2e-05", 
        "fix_gamma": "False", 
        "momentum": "0.9"
      }, 
      "inputs": []
    }, 
    {
      "op": "null", 
      "name": "stage3_unit2_bn1_beta", 
      "attr": {
        "eps": "2e-05", 
        "fix_gamma": "False", 
        "momentum": "0.9"
      }, 
      "inputs": []
    }, 
    {
      "op": "null", 
      "name": "stage3_unit2_bn1_moving_mean", 
      "attr": {
        "__init__": "[\"zero\", {}]", 
        "eps": "2e-05", 
        "fix_gamma": "False", 
        "momentum": "0.9"
      }, 
      "inputs": []
    }, 
    {
      "op": "null", 
      "name": "stage3_unit2_bn1_moving_var", 
      "attr": {
        "__init__": "[\"one\", {}]", 
        "eps": "2e-05", 
        "fix_gamma": "False", 
        "momentum": "0.9"
      }, 
      "inputs": []
    }, 
    {
      "op": "BatchNorm", 
      "name": "stage3_unit2_bn1", 
      "attr": {
        "eps": "2e-05", 
        "fix_gamma": "False", 
        "momentum": "0.9"
      }, 
      "inputs": [[149, 0, 0], [150, 0, 0], [151, 0, 0], [152, 0, 1], [153, 0, 1]]
    }, 
    {
      "op": "Activation", 
      "name": "stage3_unit2_relu1", 
      "attr": {"act_type": "relu"}, 
      "inputs": [[154, 0, 0]]
    }, 
    {
      "op": "null", 
      "name": "stage3_unit2_conv1_weight", 
      "attr": {
        "kernel": "(3, 3)", 
        "no_bias": "True", 
        "num_filter": "256", 
        "pad": "(1, 1)", 
        "stride": "(1, 1)", 
        "workspace": "256"
      }, 
      "inputs": []
    }, 
    {
      "op": "Convolution", 
      "name": "stage3_unit2_conv1", 
      "attr": {
        "kernel": "(3, 3)", 
        "no_bias": "True", 
        "num_filter": "256", 
        "pad": "(1, 1)", 
        "stride": "(1, 1)", 
        "workspace": "256"
      }, 
      "inputs": [[155, 0, 0], [156, 0, 0]]
    }, 
    {
      "op": "null", 
      "name": "stage3_unit2_bn2_gamma", 
      "attr": {
        "eps": "2e-05", 
        "fix_gamma": "False", 
        "momentum": "0.9"
      }, 
      "inputs": []
    }, 
    {
      "op": "null", 
      "name": "stage3_unit2_bn2_beta", 
      "attr": {
        "eps": "2e-05", 
        "fix_gamma": "False", 
        "momentum": "0.9"
      }, 
      "inputs": []
    }, 
    {
      "op": "null", 
      "name": "stage3_unit2_bn2_moving_mean", 
      "attr": {
        "__init__": "[\"zero\", {}]", 
        "eps": "2e-05", 
        "fix_gamma": "False", 
        "momentum": "0.9"
      }, 
      "inputs": []
    }, 
    {
      "op": "null", 
      "name": "stage3_unit2_bn2_moving_var", 
      "attr": {
        "__init__": "[\"one\", {}]", 
        "eps": "2e-05", 
        "fix_gamma": "False", 
        "momentum": "0.9"
      }, 
      "inputs": []
    }, 
    {
      "op": "BatchNorm", 
      "name": "stage3_unit2_bn2", 
      "attr": {
        "eps": "2e-05", 
        "fix_gamma": "False", 
        "momentum": "0.9"
      }, 
      "inputs": [[157, 0, 0], [158, 0, 0], [159, 0, 0], [160, 0, 1], [161, 0, 1]]
    }, 
    {
      "op": "Activation", 
      "name": "stage3_unit2_relu2", 
      "attr": {"act_type": "relu"}, 
      "inputs": [[162, 0, 0]]
    }, 
    {
      "op": "null", 
      "name": "stage3_unit2_conv2_weight", 
      "attr": {
        "kernel": "(3, 3)", 
        "no_bias": "True", 
        "num_filter": "256", 
        "pad": "(1, 1)", 
        "stride": "(1, 1)", 
        "workspace": "256"
      }, 
      "inputs": []
    }, 
    {
      "op": "Convolution", 
      "name": "stage3_unit2_conv2", 
      "attr": {
        "kernel": "(3, 3)", 
        "no_bias": "True", 
        "num_filter": "256", 
        "pad": "(1, 1)", 
        "stride": "(1, 1)", 
        "workspace": "256"
      }, 
      "inputs": [[163, 0, 0], [164, 0, 0]]
    }, 
    {
      "op": "elemwise_add", 
      "name": "_plus2568", 
      "inputs": [[165, 0, 0], [149, 0, 0]]
    }, 
    {
      "op": "null", 
      "name": "stage3_unit3_bn1_gamma", 
      "attr": {
        "eps": "2e-05", 
        "fix_gamma": "False", 
        "momentum": "0.9"
      }, 
      "inputs": []
    }, 
    {
      "op": "null", 
      "name": "stage3_unit3_bn1_beta", 
      "attr": {
        "eps": "2e-05", 
        "fix_gamma": "False", 
        "momentum": "0.9"
      }, 
      "inputs": []
    }, 
    {
      "op": "null", 
      "name": "stage3_unit3_bn1_moving_mean", 
      "attr": {
        "__init__": "[\"zero\", {}]", 
        "eps": "2e-05", 
        "fix_gamma": "False", 
        "momentum": "0.9"
      }, 
      "inputs": []
    }, 
    {
      "op": "null", 
      "name": "stage3_unit3_bn1_moving_var", 
      "attr": {
        "__init__": "[\"one\", {}]", 
        "eps": "2e-05", 
        "fix_gamma": "False", 
        "momentum": "0.9"
      }, 
      "inputs": []
    }, 
    {
      "op": "BatchNorm", 
      "name": "stage3_unit3_bn1", 
      "attr": {
        "eps": "2e-05", 
        "fix_gamma": "False", 
        "momentum": "0.9"
      }, 
      "inputs": [[166, 0, 0], [167, 0, 0], [168, 0, 0], [169, 0, 1], [170, 0, 1]]
    }, 
    {
      "op": "Activation", 
      "name": "stage3_unit3_relu1", 
      "attr": {"act_type": "relu"}, 
      "inputs": [[171, 0, 0]]
    }, 
    {
      "op": "null", 
      "name": "stage3_unit3_conv1_weight", 
      "attr": {
        "kernel": "(3, 3)", 
        "no_bias": "True", 
        "num_filter": "256", 
        "pad": "(1, 1)", 
        "stride": "(1, 1)", 
        "workspace": "256"
      }, 
      "inputs": []
    }, 
    {
      "op": "Convolution", 
      "name": "stage3_unit3_conv1", 
      "attr": {
        "kernel": "(3, 3)", 
        "no_bias": "True", 
        "num_filter": "256", 
        "pad": "(1, 1)", 
        "stride": "(1, 1)", 
        "workspace": "256"
      }, 
      "inputs": [[172, 0, 0], [173, 0, 0]]
    }, 
    {
      "op": "null", 
      "name": "stage3_unit3_bn2_gamma", 
      "attr": {
        "eps": "2e-05", 
        "fix_gamma": "False", 
        "momentum": "0.9"
      }, 
      "inputs": []
    }, 
    {
      "op": "null", 
      "name": "stage3_unit3_bn2_beta", 
      "attr": {
        "eps": "2e-05", 
        "fix_gamma": "False", 
        "momentum": "0.9"
      }, 
      "inputs": []
    }, 
    {
      "op": "null", 
      "name": "stage3_unit3_bn2_moving_mean", 
      "attr": {
        "__init__": "[\"zero\", {}]", 
        "eps": "2e-05", 
        "fix_gamma": "False", 
        "momentum": "0.9"
      }, 
      "inputs": []
    }, 
    {
      "op": "null", 
      "name": "stage3_unit3_bn2_moving_var", 
      "attr": {
        "__init__": "[\"one\", {}]", 
        "eps": "2e-05", 
        "fix_gamma": "False", 
        "momentum": "0.9"
      }, 
      "inputs": []
    }, 
    {
      "op": "BatchNorm", 
      "name": "stage3_unit3_bn2", 
      "attr": {
        "eps": "2e-05", 
        "fix_gamma": "False", 
        "momentum": "0.9"
      }, 
      "inputs": [[174, 0, 0], [175, 0, 0], [176, 0, 0], [177, 0, 1], [178, 0, 1]]
    }, 
    {
      "op": "Activation", 
      "name": "stage3_unit3_relu2", 
      "attr": {"act_type": "relu"}, 
      "inputs": [[179, 0, 0]]
    }, 
    {
      "op": "null", 
      "name": "stage3_unit3_conv2_weight", 
      "attr": {
        "kernel": "(3, 3)", 
        "no_bias": "True", 
        "num_filter": "256", 
        "pad": "(1, 1)", 
        "stride": "(1, 1)", 
        "workspace": "256"
      }, 
      "inputs": []
    }, 
    {
      "op": "Convolution", 
      "name": "stage3_unit3_conv2", 
      "attr": {
        "kernel": "(3, 3)", 
        "no_bias": "True", 
        "num_filter": "256", 
        "pad": "(1, 1)", 
        "stride": "(1, 1)", 
        "workspace": "256"
      }, 
      "inputs": [[180, 0, 0], [181, 0, 0]]
    }, 
    {
      "op": "elemwise_add", 
      "name": "_plus2569", 
      "inputs": [[182, 0, 0], [166, 0, 0]]
    }, 
    {
      "op": "null", 
      "name": "stage3_unit4_bn1_gamma", 
      "attr": {
        "eps": "2e-05", 
        "fix_gamma": "False", 
        "momentum": "0.9"
      }, 
      "inputs": []
    }, 
    {
      "op": "null", 
      "name": "stage3_unit4_bn1_beta", 
      "attr": {
        "eps": "2e-05", 
        "fix_gamma": "False", 
        "momentum": "0.9"
      }, 
      "inputs": []
    }, 
    {
      "op": "null", 
      "name": "stage3_unit4_bn1_moving_mean", 
      "attr": {
        "__init__": "[\"zero\", {}]", 
        "eps": "2e-05", 
        "fix_gamma": "False", 
        "momentum": "0.9"
      }, 
      "inputs": []
    }, 
    {
      "op": "null", 
      "name": "stage3_unit4_bn1_moving_var", 
      "attr": {
        "__init__": "[\"one\", {}]", 
        "eps": "2e-05", 
        "fix_gamma": "False", 
        "momentum": "0.9"
      }, 
      "inputs": []
    }, 
    {
      "op": "BatchNorm", 
      "name": "stage3_unit4_bn1", 
      "attr": {
        "eps": "2e-05", 
        "fix_gamma": "False", 
        "momentum": "0.9"
      }, 
      "inputs": [[183, 0, 0], [184, 0, 0], [185, 0, 0], [186, 0, 1], [187, 0, 1]]
    }, 
    {
      "op": "Activation", 
      "name": "stage3_unit4_relu1", 
      "attr": {"act_type": "relu"}, 
      "inputs": [[188, 0, 0]]
    }, 
    {
      "op": "null", 
      "name": "stage3_unit4_conv1_weight", 
      "attr": {
        "kernel": "(3, 3)", 
        "no_bias": "True", 
        "num_filter": "256", 
        "pad": "(1, 1)", 
        "stride": "(1, 1)", 
        "workspace": "256"
      }, 
      "inputs": []
    }, 
    {
      "op": "Convolution", 
      "name": "stage3_unit4_conv1", 
      "attr": {
        "kernel": "(3, 3)", 
        "no_bias": "True", 
        "num_filter": "256", 
        "pad": "(1, 1)", 
        "stride": "(1, 1)", 
        "workspace": "256"
      }, 
      "inputs": [[189, 0, 0], [190, 0, 0]]
    }, 
    {
      "op": "null", 
      "name": "stage3_unit4_bn2_gamma", 
      "attr": {
        "eps": "2e-05", 
        "fix_gamma": "False", 
        "momentum": "0.9"
      }, 
      "inputs": []
    }, 
    {
      "op": "null", 
      "name": "stage3_unit4_bn2_beta", 
      "attr": {
        "eps": "2e-05", 
        "fix_gamma": "False", 
        "momentum": "0.9"
      }, 
      "inputs": []
    }, 
    {
      "op": "null", 
      "name": "stage3_unit4_bn2_moving_mean", 
      "attr": {
        "__init__": "[\"zero\", {}]", 
        "eps": "2e-05", 
        "fix_gamma": "False", 
        "momentum": "0.9"
      }, 
      "inputs": []
    }, 
    {
      "op": "null", 
      "name": "stage3_unit4_bn2_moving_var", 
      "attr": {
        "__init__": "[\"one\", {}]", 
        "eps": "2e-05", 
        "fix_gamma": "False", 
        "momentum": "0.9"
      }, 
      "inputs": []
    }, 
    {
      "op": "BatchNorm", 
      "name": "stage3_unit4_bn2", 
      "attr": {
        "eps": "2e-05", 
        "fix_gamma": "False", 
        "momentum": "0.9"
      }, 
      "inputs": [[191, 0, 0], [192, 0, 0], [193, 0, 0], [194, 0, 1], [195, 0, 1]]
    }, 
    {
      "op": "Activation", 
      "name": "stage3_unit4_relu2", 
      "attr": {"act_type": "relu"}, 
      "inputs": [[196, 0, 0]]
    }, 
    {
      "op": "null", 
      "name": "stage3_unit4_conv2_weight", 
      "attr": {
        "kernel": "(3, 3)", 
        "no_bias": "True", 
        "num_filter": "256", 
        "pad": "(1, 1)", 
        "stride": "(1, 1)", 
        "workspace": "256"
      }, 
      "inputs": []
    }, 
    {
      "op": "Convolution", 
      "name": "stage3_unit4_conv2", 
      "attr": {
        "kernel": "(3, 3)", 
        "no_bias": "True", 
        "num_filter": "256", 
        "pad": "(1, 1)", 
        "stride": "(1, 1)", 
        "workspace": "256"
      }, 
      "inputs": [[197, 0, 0], [198, 0, 0]]
    }, 
    {
      "op": "elemwise_add", 
      "name": "_plus2570", 
      "inputs": [[199, 0, 0], [183, 0, 0]]
    }, 
    {
      "op": "null", 
      "name": "stage3_unit5_bn1_gamma", 
      "attr": {
        "eps": "2e-05", 
        "fix_gamma": "False", 
        "momentum": "0.9"
      }, 
      "inputs": []
    }, 
    {
      "op": "null", 
      "name": "stage3_unit5_bn1_beta", 
      "attr": {
        "eps": "2e-05", 
        "fix_gamma": "False", 
        "momentum": "0.9"
      }, 
      "inputs": []
    }, 
    {
      "op": "null", 
      "name": "stage3_unit5_bn1_moving_mean", 
      "attr": {
        "__init__": "[\"zero\", {}]", 
        "eps": "2e-05", 
        "fix_gamma": "False", 
        "momentum": "0.9"
      }, 
      "inputs": []
    }, 
    {
      "op": "null", 
      "name": "stage3_unit5_bn1_moving_var", 
      "attr": {
        "__init__": "[\"one\", {}]", 
        "eps": "2e-05", 
        "fix_gamma": "False", 
        "momentum": "0.9"
      }, 
      "inputs": []
    }, 
    {
      "op": "BatchNorm", 
      "name": "stage3_unit5_bn1", 
      "attr": {
        "eps": "2e-05", 
        "fix_gamma": "False", 
        "momentum": "0.9"
      }, 
      "inputs": [[200, 0, 0], [201, 0, 0], [202, 0, 0], [203, 0, 1], [204, 0, 1]]
    }, 
    {
      "op": "Activation", 
      "name": "stage3_unit5_relu1", 
      "attr": {"act_type": "relu"}, 
      "inputs": [[205, 0, 0]]
    }, 
    {
      "op": "null", 
      "name": "stage3_unit5_conv1_weight", 
      "attr": {
        "kernel": "(3, 3)", 
        "no_bias": "True", 
        "num_filter": "256", 
        "pad": "(1, 1)", 
        "stride": "(1, 1)", 
        "workspace": "256"
      }, 
      "inputs": []
    }, 
    {
      "op": "Convolution", 
      "name": "stage3_unit5_conv1", 
      "attr": {
        "kernel": "(3, 3)", 
        "no_bias": "True", 
        "num_filter": "256", 
        "pad": "(1, 1)", 
        "stride": "(1, 1)", 
        "workspace": "256"
      }, 
      "inputs": [[206, 0, 0], [207, 0, 0]]
    }, 
    {
      "op": "null", 
      "name": "stage3_unit5_bn2_gamma", 
      "attr": {
        "eps": "2e-05", 
        "fix_gamma": "False", 
        "momentum": "0.9"
      }, 
      "inputs": []
    }, 
    {
      "op": "null", 
      "name": "stage3_unit5_bn2_beta", 
      "attr": {
        "eps": "2e-05", 
        "fix_gamma": "False", 
        "momentum": "0.9"
      }, 
      "inputs": []
    }, 
    {
      "op": "null", 
      "name": "stage3_unit5_bn2_moving_mean", 
      "attr": {
        "__init__": "[\"zero\", {}]", 
        "eps": "2e-05", 
        "fix_gamma": "False", 
        "momentum": "0.9"
      }, 
      "inputs": []
    }, 
    {
      "op": "null", 
      "name": "stage3_unit5_bn2_moving_var", 
      "attr": {
        "__init__": "[\"one\", {}]", 
        "eps": "2e-05", 
        "fix_gamma": "False", 
        "momentum": "0.9"
      }, 
      "inputs": []
    }, 
    {
      "op": "BatchNorm", 
      "name": "stage3_unit5_bn2", 
      "attr": {
        "eps": "2e-05", 
        "fix_gamma": "False", 
        "momentum": "0.9"
      }, 
      "inputs": [[208, 0, 0], [209, 0, 0], [210, 0, 0], [211, 0, 1], [212, 0, 1]]
    }, 
    {
      "op": "Activation", 
      "name": "stage3_unit5_relu2", 
      "attr": {"act_type": "relu"}, 
      "inputs": [[213, 0, 0]]
    }, 
    {
      "op": "null", 
      "name": "stage3_unit5_conv2_weight", 
      "attr": {
        "kernel": "(3, 3)", 
        "no_bias": "True", 
        "num_filter": "256", 
        "pad": "(1, 1)", 
        "stride": "(1, 1)", 
        "workspace": "256"
      }, 
      "inputs": []
    }, 
    {
      "op": "Convolution", 
      "name": "stage3_unit5_conv2", 
      "attr": {
        "kernel": "(3, 3)", 
        "no_bias": "True", 
        "num_filter": "256", 
        "pad": "(1, 1)", 
        "stride": "(1, 1)", 
        "workspace": "256"
      }, 
      "inputs": [[214, 0, 0], [215, 0, 0]]
    }, 
    {
      "op": "elemwise_add", 
      "name": "_plus2571", 
      "inputs": [[216, 0, 0], [200, 0, 0]]
    }, 
    {
      "op": "null", 
      "name": "stage3_unit6_bn1_gamma", 
      "attr": {
        "eps": "2e-05", 
        "fix_gamma": "False", 
        "momentum": "0.9"
      }, 
      "inputs": []
    }, 
    {
      "op": "null", 
      "name": "stage3_unit6_bn1_beta", 
      "attr": {
        "eps": "2e-05", 
        "fix_gamma": "False", 
        "momentum": "0.9"
      }, 
      "inputs": []
    }, 
    {
      "op": "null", 
      "name": "stage3_unit6_bn1_moving_mean", 
      "attr": {
        "__init__": "[\"zero\", {}]", 
        "eps": "2e-05", 
        "fix_gamma": "False", 
        "momentum": "0.9"
      }, 
      "inputs": []
    }, 
    {
      "op": "null", 
      "name": "stage3_unit6_bn1_moving_var", 
      "attr": {
        "__init__": "[\"one\", {}]", 
        "eps": "2e-05", 
        "fix_gamma": "False", 
        "momentum": "0.9"
      }, 
      "inputs": []
    }, 
    {
      "op": "BatchNorm", 
      "name": "stage3_unit6_bn1", 
      "attr": {
        "eps": "2e-05", 
        "fix_gamma": "False", 
        "momentum": "0.9"
      }, 
      "inputs": [[217, 0, 0], [218, 0, 0], [219, 0, 0], [220, 0, 1], [221, 0, 1]]
    }, 
    {
      "op": "Activation", 
      "name": "stage3_unit6_relu1", 
      "attr": {"act_type": "relu"}, 
      "inputs": [[222, 0, 0]]
    }, 
    {
      "op": "null", 
      "name": "stage3_unit6_conv1_weight", 
      "attr": {
        "kernel": "(3, 3)", 
        "no_bias": "True", 
        "num_filter": "256", 
        "pad": "(1, 1)", 
        "stride": "(1, 1)", 
        "workspace": "256"
      }, 
      "inputs": []
    }, 
    {
      "op": "Convolution", 
      "name": "stage3_unit6_conv1", 
      "attr": {
        "kernel": "(3, 3)", 
        "no_bias": "True", 
        "num_filter": "256", 
        "pad": "(1, 1)", 
        "stride": "(1, 1)", 
        "workspace": "256"
      }, 
      "inputs": [[223, 0, 0], [224, 0, 0]]
    }, 
    {
      "op": "null", 
      "name": "stage3_unit6_bn2_gamma", 
      "attr": {
        "eps": "2e-05", 
        "fix_gamma": "False", 
        "momentum": "0.9"
      }, 
      "inputs": []
    }, 
    {
      "op": "null", 
      "name": "stage3_unit6_bn2_beta", 
      "attr": {
        "eps": "2e-05", 
        "fix_gamma": "False", 
        "momentum": "0.9"
      }, 
      "inputs": []
    }, 
    {
      "op": "null", 
      "name": "stage3_unit6_bn2_moving_mean", 
      "attr": {
        "__init__": "[\"zero\", {}]", 
        "eps": "2e-05", 
        "fix_gamma": "False", 
        "momentum": "0.9"
      }, 
      "inputs": []
    }, 
    {
      "op": "null", 
      "name": "stage3_unit6_bn2_moving_var", 
      "attr": {
        "__init__": "[\"one\", {}]", 
        "eps": "2e-05", 
        "fix_gamma": "False", 
        "momentum": "0.9"
      }, 
      "inputs": []
    }, 
    {
      "op": "BatchNorm", 
      "name": "stage3_unit6_bn2", 
      "attr": {
        "eps": "2e-05", 
        "fix_gamma": "False", 
        "momentum": "0.9"
      }, 
      "inputs": [[225, 0, 0], [226, 0, 0], [227, 0, 0], [228, 0, 1], [229, 0, 1]]
    }, 
    {
      "op": "Activation", 
      "name": "stage3_unit6_relu2", 
      "attr": {"act_type": "relu"}, 
      "inputs": [[230, 0, 0]]
    }, 
    {
      "op": "null", 
      "name": "stage3_unit6_conv2_weight", 
      "attr": {
        "kernel": "(3, 3)", 
        "no_bias": "True", 
        "num_filter": "256", 
        "pad": "(1, 1)", 
        "stride": "(1, 1)", 
        "workspace": "256"
      }, 
      "inputs": []
    }, 
    {
      "op": "Convolution", 
      "name": "stage3_unit6_conv2", 
      "attr": {
        "kernel": "(3, 3)", 
        "no_bias": "True", 
        "num_filter": "256", 
        "pad": "(1, 1)", 
        "stride": "(1, 1)", 
        "workspace": "256"
      }, 
      "inputs": [[231, 0, 0], [232, 0, 0]]
    }, 
    {
      "op": "elemwise_add", 
      "name": "_plus2572", 
      "inputs": [[233, 0, 0], [217, 0, 0]]
    }, 
    {
      "op": "null", 
      "name": "stage4_unit1_bn1_gamma", 
      "attr": {
        "eps": "2e-05", 
        "fix_gamma": "False", 
        "momentum": "0.9"
      }, 
      "inputs": []
    }, 
    {
      "op": "null", 
      "name": "stage4_unit1_bn1_beta", 
      "attr": {
        "eps": "2e-05", 
        "fix_gamma": "False", 
        "momentum": "0.9"
      }, 
      "inputs": []
    }, 
    {
      "op": "null", 
      "name": "stage4_unit1_bn1_moving_mean", 
      "attr": {
        "__init__": "[\"zero\", {}]", 
        "eps": "2e-05", 
        "fix_gamma": "False", 
        "momentum": "0.9"
      }, 
      "inputs": []
    }, 
    {
      "op": "null", 
      "name": "stage4_unit1_bn1_moving_var", 
      "attr": {
        "__init__": "[\"one\", {}]", 
        "eps": "2e-05", 
        "fix_gamma": "False", 
        "momentum": "0.9"
      }, 
      "inputs": []
    }, 
    {
      "op": "BatchNorm", 
      "name": "stage4_unit1_bn1", 
      "attr": {
        "eps": "2e-05", 
        "fix_gamma": "False", 
        "momentum": "0.9"
      }, 
      "inputs": [[234, 0, 0], [235, 0, 0], [236, 0, 0], [237, 0, 1], [238, 0, 1]]
    }, 
    {
      "op": "Activation", 
      "name": "stage4_unit1_relu1", 
      "attr": {"act_type": "relu"}, 
      "inputs": [[239, 0, 0]]
    }, 
    {
      "op": "null", 
      "name": "stage4_unit1_conv1_weight", 
      "attr": {
        "kernel": "(3, 3)", 
        "no_bias": "True", 
        "num_filter": "512", 
        "pad": "(1, 1)", 
        "stride": "(2, 2)", 
        "workspace": "256"
      }, 
      "inputs": []
    }, 
    {
      "op": "Convolution", 
      "name": "stage4_unit1_conv1", 
      "attr": {
        "kernel": "(3, 3)", 
        "no_bias": "True", 
        "num_filter": "512", 
        "pad": "(1, 1)", 
        "stride": "(2, 2)", 
        "workspace": "256"
      }, 
      "inputs": [[240, 0, 0], [241, 0, 0]]
    }, 
    {
      "op": "null", 
      "name": "stage4_unit1_bn2_gamma", 
      "attr": {
        "eps": "2e-05", 
        "fix_gamma": "False", 
        "momentum": "0.9"
      }, 
      "inputs": []
    }, 
    {
      "op": "null", 
      "name": "stage4_unit1_bn2_beta", 
      "attr": {
        "eps": "2e-05", 
        "fix_gamma": "False", 
        "momentum": "0.9"
      }, 
      "inputs": []
    }, 
    {
      "op": "null", 
      "name": "stage4_unit1_bn2_moving_mean", 
      "attr": {
        "__init__": "[\"zero\", {}]", 
        "eps": "2e-05", 
        "fix_gamma": "False", 
        "momentum": "0.9"
      }, 
      "inputs": []
    }, 
    {
      "op": "null", 
      "name": "stage4_unit1_bn2_moving_var", 
      "attr": {
        "__init__": "[\"one\", {}]", 
        "eps": "2e-05", 
        "fix_gamma": "False", 
        "momentum": "0.9"
      }, 
      "inputs": []
    }, 
    {
      "op": "BatchNorm", 
      "name": "stage4_unit1_bn2", 
      "attr": {
        "eps": "2e-05", 
        "fix_gamma": "False", 
        "momentum": "0.9"
      }, 
      "inputs": [[242, 0, 0], [243, 0, 0], [244, 0, 0], [245, 0, 1], [246, 0, 1]]
    }, 
    {
      "op": "Activation", 
      "name": "stage4_unit1_relu2", 
      "attr": {"act_type": "relu"}, 
      "inputs": [[247, 0, 0]]
    }, 
    {
      "op": "null", 
      "name": "stage4_unit1_conv2_weight", 
      "attr": {
        "kernel": "(3, 3)", 
        "no_bias": "True", 
        "num_filter": "512", 
        "pad": "(1, 1)", 
        "stride": "(1, 1)", 
        "workspace": "256"
      }, 
      "inputs": []
    }, 
    {
      "op": "Convolution", 
      "name": "stage4_unit1_conv2", 
      "attr": {
        "kernel": "(3, 3)", 
        "no_bias": "True", 
        "num_filter": "512", 
        "pad": "(1, 1)", 
        "stride": "(1, 1)", 
        "workspace": "256"
      }, 
      "inputs": [[248, 0, 0], [249, 0, 0]]
    }, 
    {
      "op": "null", 
      "name": "stage4_unit1_sc_weight", 
      "attr": {
        "kernel": "(1, 1)", 
        "no_bias": "True", 
        "num_filter": "512", 
        "stride": "(2, 2)", 
        "workspace": "256"
      }, 
      "inputs": []
    }, 
    {
      "op": "Convolution", 
      "name": "stage4_unit1_sc", 
      "attr": {
        "kernel": "(1, 1)", 
        "no_bias": "True", 
        "num_filter": "512", 
        "stride": "(2, 2)", 
        "workspace": "256"
      }, 
      "inputs": [[240, 0, 0], [251, 0, 0]]
    }, 
    {
      "op": "elemwise_add", 
      "name": "_plus2573", 
      "inputs": [[250, 0, 0], [252, 0, 0]]
    }, 
    {
      "op": "null", 
      "name": "stage4_unit2_bn1_gamma", 
      "attr": {
        "eps": "2e-05", 
        "fix_gamma": "False", 
        "momentum": "0.9"
      }, 
      "inputs": []
    }, 
    {
      "op": "null", 
      "name": "stage4_unit2_bn1_beta", 
      "attr": {
        "eps": "2e-05", 
        "fix_gamma": "False", 
        "momentum": "0.9"
      }, 
      "inputs": []
    }, 
    {
      "op": "null", 
      "name": "stage4_unit2_bn1_moving_mean", 
      "attr": {
        "__init__": "[\"zero\", {}]", 
        "eps": "2e-05", 
        "fix_gamma": "False", 
        "momentum": "0.9"
      }, 
      "inputs": []
    }, 
    {
      "op": "null", 
      "name": "stage4_unit2_bn1_moving_var", 
      "attr": {
        "__init__": "[\"one\", {}]", 
        "eps": "2e-05", 
        "fix_gamma": "False", 
        "momentum": "0.9"
      }, 
      "inputs": []
    }, 
    {
      "op": "BatchNorm", 
      "name": "stage4_unit2_bn1", 
      "attr": {
        "eps": "2e-05", 
        "fix_gamma": "False", 
        "momentum": "0.9"
      }, 
      "inputs": [[253, 0, 0], [254, 0, 0], [255, 0, 0], [256, 0, 1], [257, 0, 1]]
    }, 
    {
      "op": "Activation", 
      "name": "stage4_unit2_relu1", 
      "attr": {"act_type": "relu"}, 
      "inputs": [[258, 0, 0]]
    }, 
    {
      "op": "null", 
      "name": "stage4_unit2_conv1_weight", 
      "attr": {
        "kernel": "(3, 3)", 
        "no_bias": "True", 
        "num_filter": "512", 
        "pad": "(1, 1)", 
        "stride": "(1, 1)", 
        "workspace": "256"
      }, 
      "inputs": []
    }, 
    {
      "op": "Convolution", 
      "name": "stage4_unit2_conv1", 
      "attr": {
        "kernel": "(3, 3)", 
        "no_bias": "True", 
        "num_filter": "512", 
        "pad": "(1, 1)", 
        "stride": "(1, 1)", 
        "workspace": "256"
      }, 
      "inputs": [[259, 0, 0], [260, 0, 0]]
    }, 
    {
      "op": "null", 
      "name": "stage4_unit2_bn2_gamma", 
      "attr": {
        "eps": "2e-05", 
        "fix_gamma": "False", 
        "momentum": "0.9"
      }, 
      "inputs": []
    }, 
    {
      "op": "null", 
      "name": "stage4_unit2_bn2_beta", 
      "attr": {
        "eps": "2e-05", 
        "fix_gamma": "False", 
        "momentum": "0.9"
      }, 
      "inputs": []
    }, 
    {
      "op": "null", 
      "name": "stage4_unit2_bn2_moving_mean", 
      "attr": {
        "__init__": "[\"zero\", {}]", 
        "eps": "2e-05", 
        "fix_gamma": "False", 
        "momentum": "0.9"
      }, 
      "inputs": []
    }, 
    {
      "op": "null", 
      "name": "stage4_unit2_bn2_moving_var", 
      "attr": {
        "__init__": "[\"one\", {}]", 
        "eps": "2e-05", 
        "fix_gamma": "False", 
        "momentum": "0.9"
      }, 
      "inputs": []
    }, 
    {
      "op": "BatchNorm", 
      "name": "stage4_unit2_bn2", 
      "attr": {
        "eps": "2e-05", 
        "fix_gamma": "False", 
        "momentum": "0.9"
      }, 
      "inputs": [[261, 0, 0], [262, 0, 0], [263, 0, 0], [264, 0, 1], [265, 0, 1]]
    }, 
    {
      "op": "Activation", 
      "name": "stage4_unit2_relu2", 
      "attr": {"act_type": "relu"}, 
      "inputs": [[266, 0, 0]]
    }, 
    {
      "op": "null", 
      "name": "stage4_unit2_conv2_weight", 
      "attr": {
        "kernel": "(3, 3)", 
        "no_bias": "True", 
        "num_filter": "512", 
        "pad": "(1, 1)", 
        "stride": "(1, 1)", 
        "workspace": "256"
      }, 
      "inputs": []
    }, 
    {
      "op": "Convolution", 
      "name": "stage4_unit2_conv2", 
      "attr": {
        "kernel": "(3, 3)", 
        "no_bias": "True", 
        "num_filter": "512", 
        "pad": "(1, 1)", 
        "stride": "(1, 1)", 
        "workspace": "256"
      }, 
      "inputs": [[267, 0, 0], [268, 0, 0]]
    }, 
    {
      "op": "elemwise_add", 
      "name": "_plus2574", 
      "inputs": [[269, 0, 0], [253, 0, 0]]
    }, 
    {
      "op": "null", 
      "name": "stage4_unit3_bn1_gamma", 
      "attr": {
        "eps": "2e-05", 
        "fix_gamma": "False", 
        "momentum": "0.9"
      }, 
      "inputs": []
    }, 
    {
      "op": "null", 
      "name": "stage4_unit3_bn1_beta", 
      "attr": {
        "eps": "2e-05", 
        "fix_gamma": "False", 
        "momentum": "0.9"
      }, 
      "inputs": []
    }, 
    {
      "op": "null", 
      "name": "stage4_unit3_bn1_moving_mean", 
      "attr": {
        "__init__": "[\"zero\", {}]", 
        "eps": "2e-05", 
        "fix_gamma": "False", 
        "momentum": "0.9"
      }, 
      "inputs": []
    }, 
    {
      "op": "null", 
      "name": "stage4_unit3_bn1_moving_var", 
      "attr": {
        "__init__": "[\"one\", {}]", 
        "eps": "2e-05", 
        "fix_gamma": "False", 
        "momentum": "0.9"
      }, 
      "inputs": []
    }, 
    {
      "op": "BatchNorm", 
      "name": "stage4_unit3_bn1", 
      "attr": {
        "eps": "2e-05", 
        "fix_gamma": "False", 
        "momentum": "0.9"
      }, 
      "inputs": [[270, 0, 0], [271, 0, 0], [272, 0, 0], [273, 0, 1], [274, 0, 1]]
    }, 
    {
      "op": "Activation", 
      "name": "stage4_unit3_relu1", 
      "attr": {"act_type": "relu"}, 
      "inputs": [[275, 0, 0]]
    }, 
    {
      "op": "null", 
      "name": "stage4_unit3_conv1_weight", 
      "attr": {
        "kernel": "(3, 3)", 
        "no_bias": "True", 
        "num_filter": "512", 
        "pad": "(1, 1)", 
        "stride": "(1, 1)", 
        "workspace": "256"
      }, 
      "inputs": []
    }, 
    {
      "op": "Convolution", 
      "name": "stage4_unit3_conv1", 
      "attr": {
        "kernel": "(3, 3)", 
        "no_bias": "True", 
        "num_filter": "512", 
        "pad": "(1, 1)", 
        "stride": "(1, 1)", 
        "workspace": "256"
      }, 
      "inputs": [[276, 0, 0], [277, 0, 0]]
    }, 
    {
      "op": "null", 
      "name": "stage4_unit3_bn2_gamma", 
      "attr": {
        "eps": "2e-05", 
        "fix_gamma": "False", 
        "momentum": "0.9"
      }, 
      "inputs": []
    }, 
    {
      "op": "null", 
      "name": "stage4_unit3_bn2_beta", 
      "attr": {
        "eps": "2e-05", 
        "fix_gamma": "False", 
        "momentum": "0.9"
      }, 
      "inputs": []
    }, 
    {
      "op": "null", 
      "name": "stage4_unit3_bn2_moving_mean", 
      "attr": {
        "__init__": "[\"zero\", {}]", 
        "eps": "2e-05", 
        "fix_gamma": "False", 
        "momentum": "0.9"
      }, 
      "inputs": []
    }, 
    {
      "op": "null", 
      "name": "stage4_unit3_bn2_moving_var", 
      "attr": {
        "__init__": "[\"one\", {}]", 
        "eps": "2e-05", 
        "fix_gamma": "False", 
        "momentum": "0.9"
      }, 
      "inputs": []
    }, 
    {
      "op": "BatchNorm", 
      "name": "stage4_unit3_bn2", 
      "attr": {
        "eps": "2e-05", 
        "fix_gamma": "False", 
        "momentum": "0.9"
      }, 
      "inputs": [[278, 0, 0], [279, 0, 0], [280, 0, 0], [281, 0, 1], [282, 0, 1]]
    }, 
    {
      "op": "Activation", 
      "name": "stage4_unit3_relu2", 
      "attr": {"act_type": "relu"}, 
      "inputs": [[283, 0, 0]]
    }, 
    {
      "op": "null", 
      "name": "stage4_unit3_conv2_weight", 
      "attr": {
        "kernel": "(3, 3)", 
        "no_bias": "True", 
        "num_filter": "512", 
        "pad": "(1, 1)", 
        "stride": "(1, 1)", 
        "workspace": "256"
      }, 
      "inputs": []
    }, 
    {
      "op": "Convolution", 
      "name": "stage4_unit3_conv2", 
      "attr": {
        "kernel": "(3, 3)", 
        "no_bias": "True", 
        "num_filter": "512", 
        "pad": "(1, 1)", 
        "stride": "(1, 1)", 
        "workspace": "256"
      }, 
      "inputs": [[284, 0, 0], [285, 0, 0]]
    }, 
    {
      "op": "elemwise_add", 
      "name": "_plus2575", 
      "inputs": [[286, 0, 0], [270, 0, 0]]
    }, 
    {
      "op": "null", 
      "name": "bn1_gamma", 
      "attr": {
        "eps": "2e-05", 
        "fix_gamma": "False", 
        "momentum": "0.9"
      }, 
      "inputs": []
    }, 
    {
      "op": "null", 
      "name": "bn1_beta", 
      "attr": {
        "eps": "2e-05", 
        "fix_gamma": "False", 
        "momentum": "0.9"
      }, 
      "inputs": []
    }, 
    {
      "op": "null", 
      "name": "bn1_moving_mean", 
      "attr": {
        "__init__": "[\"zero\", {}]", 
        "eps": "2e-05", 
        "fix_gamma": "False", 
        "momentum": "0.9"
      }, 
      "inputs": []
    }, 
    {
      "op": "null", 
      "name": "bn1_moving_var", 
      "attr": {
        "__init__": "[\"one\", {}]", 
        "eps": "2e-05", 
        "fix_gamma": "False", 
        "momentum": "0.9"
      }, 
      "inputs": []
    }, 
    {
      "op": "BatchNorm", 
      "name": "bn1", 
      "attr": {
        "eps": "2e-05", 
        "fix_gamma": "False", 
        "momentum": "0.9"
      }, 
      "inputs": [[287, 0, 0], [288, 0, 0], [289, 0, 0], [290, 0, 1], [291, 0, 1]]
    }, 
    {
      "op": "Activation", 
      "name": "relu1", 
      "attr": {"act_type": "relu"}, 
      "inputs": [[292, 0, 0]]
    }, 
    {
      "op": "SliceChannel", 
      "name": "slicechannel4", 
      "attr": {
        "axis": "3", 
        "num_outputs": "16", 
        "squeeze_axis": "1"
      }, 
      "inputs": [[293, 0, 0]]
    }, 
    {
      "op": "Flatten", 
      "name": "flatten1248", 
      "inputs": [[294, 0, 0]]
    }, 
    {
      "op": "Dropout", 
      "name": "dropout1248", 
      "attr": {"p": "0.5"}, 
      "inputs": [[295, 0, 0]]
    }, 
    {
      "op": "null", 
      "name": "f_l0_i2h_weight", 
      "inputs": []
    }, 
    {
      "op": "null", 
      "name": "f_l0_i2h_bias", 
      "inputs": []
    }, 
    {
      "op": "FullyConnected", 
      "name": "t0_l0_i2h", 
      "attr": {"num_hidden": "1024"}, 
      "inputs": [[296, 0, 0], [297, 0, 0], [298, 0, 0]]
    }, 
    {
      "op": "null", 
      "name": "f_l0_init_h", 
      "inputs": []
    }, 
    {
      "op": "null", 
      "name": "f_l0_h2h_weight", 
      "inputs": []
    }, 
    {
      "op": "null", 
      "name": "f_l0_h2h_bias", 
      "inputs": []
    }, 
    {
      "op": "FullyConnected", 
      "name": "t0_l0_h2h", 
      "attr": {"num_hidden": "1024"}, 
      "inputs": [[300, 0, 0], [301, 0, 0], [302, 0, 0]]
    }, 
    {
      "op": "elemwise_add", 
      "name": "_plus2576", 
      "inputs": [[299, 0, 0], [303, 0, 0]]
    }, 
    {
      "op": "SliceChannel", 
      "name": "t0_l0_slice", 
      "attr": {"num_outputs": "4"}, 
      "inputs": [[304, 0, 0]]
    }, 
    {
      "op": "Activation", 
      "name": "activation6243", 
      "attr": {"act_type": "sigmoid"}, 
      "inputs": [[305, 3, 0]]
    }, 
    {
      "op": "Activation", 
      "name": "activation6242", 
      "attr": {"act_type": "sigmoid"}, 
      "inputs": [[305, 2, 0]]
    }, 
    {
      "op": "null", 
      "name": "f_l0_init_c", 
      "inputs": []
    }, 
    {
      "op": "_mul", 
      "name": "_mul3744", 
      "inputs": [[307, 0, 0], [308, 0, 0]]
    }, 
    {
      "op": "Activation", 
      "name": "activation6240", 
      "attr": {"act_type": "sigmoid"}, 
      "inputs": [[305, 0, 0]]
    }, 
    {
      "op": "Activation", 
      "name": "activation6241", 
      "attr": {"act_type": "tanh"}, 
      "inputs": [[305, 1, 0]]
    }, 
    {
      "op": "_mul", 
      "name": "_mul3745", 
      "inputs": [[310, 0, 0], [311, 0, 0]]
    }, 
    {
      "op": "elemwise_add", 
      "name": "_plus2577", 
      "inputs": [[309, 0, 0], [312, 0, 0]]
    }, 
    {
      "op": "Activation", 
      "name": "activation6244", 
      "attr": {"act_type": "tanh"}, 
      "inputs": [[313, 0, 0]]
    }, 
    {
      "op": "_mul", 
      "name": "_mul3746", 
      "inputs": [[306, 0, 0], [314, 0, 0]]
    }, 
    {
      "op": "Flatten", 
      "name": "flatten1279", 
      "inputs": [[294, 0, 0]]
    }, 
    {
      "op": "Dropout", 
      "name": "dropout1279", 
      "attr": {"p": "0.5"}, 
      "inputs": [[316, 0, 0]]
    }, 
    {
      "op": "null", 
      "name": "b_l0_i2h_weight", 
      "inputs": []
    }, 
    {
      "op": "null", 
      "name": "b_l0_i2h_bias", 
      "inputs": []
    }, 
    {
      "op": "FullyConnected", 
      "name": "t0_l0_i2h", 
      "attr": {"num_hidden": "1024"}, 
      "inputs": [[317, 0, 0], [318, 0, 0], [319, 0, 0]]
    }, 
    {
      "op": "Flatten", 
      "name": "flatten1278", 
      "inputs": [[294, 1, 0]]
    }, 
    {
      "op": "Dropout", 
      "name": "dropout1278", 
      "attr": {"p": "0.5"}, 
      "inputs": [[321, 0, 0]]
    }, 
    {
      "op": "FullyConnected", 
      "name": "t1_l0_i2h", 
      "attr": {"num_hidden": "1024"}, 
      "inputs": [[322, 0, 0], [318, 0, 0], [319, 0, 0]]
    }, 
    {
      "op": "Flatten", 
      "name": "flatten1277", 
      "inputs": [[294, 2, 0]]
    }, 
    {
      "op": "Dropout", 
      "name": "dropout1277", 
      "attr": {"p": "0.5"}, 
      "inputs": [[324, 0, 0]]
    }, 
    {
      "op": "FullyConnected", 
      "name": "t2_l0_i2h", 
      "attr": {"num_hidden": "1024"}, 
      "inputs": [[325, 0, 0], [318, 0, 0], [319, 0, 0]]
    }, 
    {
      "op": "Flatten", 
      "name": "flatten1276", 
      "inputs": [[294, 3, 0]]
    }, 
    {
      "op": "Dropout", 
      "name": "dropout1276", 
      "attr": {"p": "0.5"}, 
      "inputs": [[327, 0, 0]]
    }, 
    {
      "op": "FullyConnected", 
      "name": "t3_l0_i2h", 
      "attr": {"num_hidden": "1024"}, 
      "inputs": [[328, 0, 0], [318, 0, 0], [319, 0, 0]]
    }, 
    {
      "op": "Flatten", 
      "name": "flatten1275", 
      "inputs": [[294, 4, 0]]
    }, 
    {
      "op": "Dropout", 
      "name": "dropout1275", 
      "attr": {"p": "0.5"}, 
      "inputs": [[330, 0, 0]]
    }, 
    {
      "op": "FullyConnected", 
      "name": "t4_l0_i2h", 
      "attr": {"num_hidden": "1024"}, 
      "inputs": [[331, 0, 0], [318, 0, 0], [319, 0, 0]]
    }, 
    {
      "op": "Flatten", 
      "name": "flatten1274", 
      "inputs": [[294, 5, 0]]
    }, 
    {
      "op": "Dropout", 
      "name": "dropout1274", 
      "attr": {"p": "0.5"}, 
      "inputs": [[333, 0, 0]]
    }, 
    {
      "op": "FullyConnected", 
      "name": "t5_l0_i2h", 
      "attr": {"num_hidden": "1024"}, 
      "inputs": [[334, 0, 0], [318, 0, 0], [319, 0, 0]]
    }, 
    {
      "op": "Flatten", 
      "name": "flatten1273", 
      "inputs": [[294, 6, 0]]
    }, 
    {
      "op": "Dropout", 
      "name": "dropout1273", 
      "attr": {"p": "0.5"}, 
      "inputs": [[336, 0, 0]]
    }, 
    {
      "op": "FullyConnected", 
      "name": "t6_l0_i2h", 
      "attr": {"num_hidden": "1024"}, 
      "inputs": [[337, 0, 0], [318, 0, 0], [319, 0, 0]]
    }, 
    {
      "op": "Flatten", 
      "name": "flatten1272", 
      "inputs": [[294, 7, 0]]
    }, 
    {
      "op": "Dropout", 
      "name": "dropout1272", 
      "attr": {"p": "0.5"}, 
      "inputs": [[339, 0, 0]]
    }, 
    {
      "op": "FullyConnected", 
      "name": "t7_l0_i2h", 
      "attr": {"num_hidden": "1024"}, 
      "inputs": [[340, 0, 0], [318, 0, 0], [319, 0, 0]]
    }, 
    {
      "op": "Flatten", 
      "name": "flatten1271", 
      "inputs": [[294, 8, 0]]
    }, 
    {
      "op": "Dropout", 
      "name": "dropout1271", 
      "attr": {"p": "0.5"}, 
      "inputs": [[342, 0, 0]]
    }, 
    {
      "op": "FullyConnected", 
      "name": "t8_l0_i2h", 
      "attr": {"num_hidden": "1024"}, 
      "inputs": [[343, 0, 0], [318, 0, 0], [319, 0, 0]]
    }, 
    {
      "op": "Flatten", 
      "name": "flatten1270", 
      "inputs": [[294, 9, 0]]
    }, 
    {
      "op": "Dropout", 
      "name": "dropout1270", 
      "attr": {"p": "0.5"}, 
      "inputs": [[345, 0, 0]]
    }, 
    {
      "op": "FullyConnected", 
      "name": "t9_l0_i2h", 
      "attr": {"num_hidden": "1024"}, 
      "inputs": [[346, 0, 0], [318, 0, 0], [319, 0, 0]]
    }, 
    {
      "op": "Flatten", 
      "name": "flatten1269", 
      "inputs": [[294, 10, 0]]
    }, 
    {
      "op": "Dropout", 
      "name": "dropout1269", 
      "attr": {"p": "0.5"}, 
      "inputs": [[348, 0, 0]]
    }, 
    {
      "op": "FullyConnected", 
      "name": "t10_l0_i2h", 
      "attr": {"num_hidden": "1024"}, 
      "inputs": [[349, 0, 0], [318, 0, 0], [319, 0, 0]]
    }, 
    {
      "op": "Flatten", 
      "name": "flatten1268", 
      "inputs": [[294, 11, 0]]
    }, 
    {
      "op": "Dropout", 
      "name": "dropout1268", 
      "attr": {"p": "0.5"}, 
      "inputs": [[351, 0, 0]]
    }, 
    {
      "op": "FullyConnected", 
      "name": "t11_l0_i2h", 
      "attr": {"num_hidden": "1024"}, 
      "inputs": [[352, 0, 0], [318, 0, 0], [319, 0, 0]]
    }, 
    {
      "op": "Flatten", 
      "name": "flatten1267", 
      "inputs": [[294, 12, 0]]
    }, 
    {
      "op": "Dropout", 
      "name": "dropout1267", 
      "attr": {"p": "0.5"}, 
      "inputs": [[354, 0, 0]]
    }, 
    {
      "op": "FullyConnected", 
      "name": "t12_l0_i2h", 
      "attr": {"num_hidden": "1024"}, 
      "inputs": [[355, 0, 0], [318, 0, 0], [319, 0, 0]]
    }, 
    {
      "op": "Flatten", 
      "name": "flatten1266", 
      "inputs": [[294, 13, 0]]
    }, 
    {
      "op": "Dropout", 
      "name": "dropout1266", 
      "attr": {"p": "0.5"}, 
      "inputs": [[357, 0, 0]]
    }, 
    {
      "op": "FullyConnected", 
      "name": "t13_l0_i2h", 
      "attr": {"num_hidden": "1024"}, 
      "inputs": [[358, 0, 0], [318, 0, 0], [319, 0, 0]]
    }, 
    {
      "op": "Flatten", 
      "name": "flatten1265", 
      "inputs": [[294, 14, 0]]
    }, 
    {
      "op": "Dropout", 
      "name": "dropout1265", 
      "attr": {"p": "0.5"}, 
      "inputs": [[360, 0, 0]]
    }, 
    {
      "op": "FullyConnected", 
      "name": "t14_l0_i2h", 
      "attr": {"num_hidden": "1024"}, 
      "inputs": [[361, 0, 0], [318, 0, 0], [319, 0, 0]]
    }, 
    {
      "op": "Flatten", 
      "name": "flatten1264", 
      "inputs": [[294, 15, 0]]
    }, 
    {
      "op": "Dropout", 
      "name": "dropout1264", 
      "attr": {"p": "0.5"}, 
      "inputs": [[363, 0, 0]]
    }, 
    {
      "op": "FullyConnected", 
      "name": "t15_l0_i2h", 
      "attr": {"num_hidden": "1024"}, 
      "inputs": [[364, 0, 0], [318, 0, 0], [319, 0, 0]]
    }, 
    {
      "op": "null", 
      "name": "b_l0_init_h", 
      "inputs": []
    }, 
    {
      "op": "null", 
      "name": "b_l0_h2h_weight", 
      "inputs": []
    }, 
    {
      "op": "null", 
      "name": "b_l0_h2h_bias", 
      "inputs": []
    }, 
    {
      "op": "FullyConnected", 
      "name": "t15_l0_h2h", 
      "attr": {"num_hidden": "1024"}, 
      "inputs": [[366, 0, 0], [367, 0, 0], [368, 0, 0]]
    }, 
    {
      "op": "elemwise_add", 
      "name": "_plus2608", 
      "inputs": [[365, 0, 0], [369, 0, 0]]
    }, 
    {
      "op": "SliceChannel", 
      "name": "t15_l0_slice", 
      "attr": {"num_outputs": "4"}, 
      "inputs": [[370, 0, 0]]
    }, 
    {
      "op": "Activation", 
      "name": "activation6323", 
      "attr": {"act_type": "sigmoid"}, 
      "inputs": [[371, 3, 0]]
    }, 
    {
      "op": "Activation", 
      "name": "activation6322", 
      "attr": {"act_type": "sigmoid"}, 
      "inputs": [[371, 2, 0]]
    }, 
    {
      "op": "null", 
      "name": "b_l0_init_c", 
      "inputs": []
    }, 
    {
      "op": "_mul", 
      "name": "_mul3792", 
      "inputs": [[373, 0, 0], [374, 0, 0]]
    }, 
    {
      "op": "Activation", 
      "name": "activation6320", 
      "attr": {"act_type": "sigmoid"}, 
      "inputs": [[371, 0, 0]]
    }, 
    {
      "op": "Activation", 
      "name": "activation6321", 
      "attr": {"act_type": "tanh"}, 
      "inputs": [[371, 1, 0]]
    }, 
    {
      "op": "_mul", 
      "name": "_mul3793", 
      "inputs": [[376, 0, 0], [377, 0, 0]]
    }, 
    {
      "op": "elemwise_add", 
      "name": "_plus2609", 
      "inputs": [[375, 0, 0], [378, 0, 0]]
    }, 
    {
      "op": "Activation", 
      "name": "activation6324", 
      "attr": {"act_type": "tanh"}, 
      "inputs": [[379, 0, 0]]
    }, 
    {
      "op": "_mul", 
      "name": "_mul3794", 
      "inputs": [[372, 0, 0], [380, 0, 0]]
    }, 
    {
      "op": "FullyConnected", 
      "name": "t14_l0_h2h", 
      "attr": {"num_hidden": "1024"}, 
      "inputs": [[381, 0, 0], [367, 0, 0], [368, 0, 0]]
    }, 
    {
      "op": "elemwise_add", 
      "name": "_plus2610", 
      "inputs": [[362, 0, 0], [382, 0, 0]]
    }, 
    {
      "op": "SliceChannel", 
      "name": "t14_l0_slice", 
      "attr": {"num_outputs": "4"}, 
      "inputs": [[383, 0, 0]]
    }, 
    {
      "op": "Activation", 
      "name": "activation6328", 
      "attr": {"act_type": "sigmoid"}, 
      "inputs": [[384, 3, 0]]
    }, 
    {
      "op": "Activation", 
      "name": "activation6327", 
      "attr": {"act_type": "sigmoid"}, 
      "inputs": [[384, 2, 0]]
    }, 
    {
      "op": "_mul", 
      "name": "_mul3795", 
      "inputs": [[386, 0, 0], [379, 0, 0]]
    }, 
    {
      "op": "Activation", 
      "name": "activation6325", 
      "attr": {"act_type": "sigmoid"}, 
      "inputs": [[384, 0, 0]]
    }, 
    {
      "op": "Activation", 
      "name": "activation6326", 
      "attr": {"act_type": "tanh"}, 
      "inputs": [[384, 1, 0]]
    }, 
    {
      "op": "_mul", 
      "name": "_mul3796", 
      "inputs": [[388, 0, 0], [389, 0, 0]]
    }, 
    {
      "op": "elemwise_add", 
      "name": "_plus2611", 
      "inputs": [[387, 0, 0], [390, 0, 0]]
    }, 
    {
      "op": "Activation", 
      "name": "activation6329", 
      "attr": {"act_type": "tanh"}, 
      "inputs": [[391, 0, 0]]
    }, 
    {
      "op": "_mul", 
      "name": "_mul3797", 
      "inputs": [[385, 0, 0], [392, 0, 0]]
    }, 
    {
      "op": "FullyConnected", 
      "name": "t13_l0_h2h", 
      "attr": {"num_hidden": "1024"}, 
      "inputs": [[393, 0, 0], [367, 0, 0], [368, 0, 0]]
    }, 
    {
      "op": "elemwise_add", 
      "name": "_plus2612", 
      "inputs": [[359, 0, 0], [394, 0, 0]]
    }, 
    {
      "op": "SliceChannel", 
      "name": "t13_l0_slice", 
      "attr": {"num_outputs": "4"}, 
      "inputs": [[395, 0, 0]]
    }, 
    {
      "op": "Activation", 
      "name": "activation6333", 
      "attr": {"act_type": "sigmoid"}, 
      "inputs": [[396, 3, 0]]
    }, 
    {
      "op": "Activation", 
      "name": "activation6332", 
      "attr": {"act_type": "sigmoid"}, 
      "inputs": [[396, 2, 0]]
    }, 
    {
      "op": "_mul", 
      "name": "_mul3798", 
      "inputs": [[398, 0, 0], [391, 0, 0]]
    }, 
    {
      "op": "Activation", 
      "name": "activation6330", 
      "attr": {"act_type": "sigmoid"}, 
      "inputs": [[396, 0, 0]]
    }, 
    {
      "op": "Activation", 
      "name": "activation6331", 
      "attr": {"act_type": "tanh"}, 
      "inputs": [[396, 1, 0]]
    }, 
    {
      "op": "_mul", 
      "name": "_mul3799", 
      "inputs": [[400, 0, 0], [401, 0, 0]]
    }, 
    {
      "op": "elemwise_add", 
      "name": "_plus2613", 
      "inputs": [[399, 0, 0], [402, 0, 0]]
    }, 
    {
      "op": "Activation", 
      "name": "activation6334", 
      "attr": {"act_type": "tanh"}, 
      "inputs": [[403, 0, 0]]
    }, 
    {
      "op": "_mul", 
      "name": "_mul3800", 
      "inputs": [[397, 0, 0], [404, 0, 0]]
    }, 
    {
      "op": "FullyConnected", 
      "name": "t12_l0_h2h", 
      "attr": {"num_hidden": "1024"}, 
      "inputs": [[405, 0, 0], [367, 0, 0], [368, 0, 0]]
    }, 
    {
      "op": "elemwise_add", 
      "name": "_plus2614", 
      "inputs": [[356, 0, 0], [406, 0, 0]]
    }, 
    {
      "op": "SliceChannel", 
      "name": "t12_l0_slice", 
      "attr": {"num_outputs": "4"}, 
      "inputs": [[407, 0, 0]]
    }, 
    {
      "op": "Activation", 
      "name": "activation6338", 
      "attr": {"act_type": "sigmoid"}, 
      "inputs": [[408, 3, 0]]
    }, 
    {
      "op": "Activation", 
      "name": "activation6337", 
      "attr": {"act_type": "sigmoid"}, 
      "inputs": [[408, 2, 0]]
    }, 
    {
      "op": "_mul", 
      "name": "_mul3801", 
      "inputs": [[410, 0, 0], [403, 0, 0]]
    }, 
    {
      "op": "Activation", 
      "name": "activation6335", 
      "attr": {"act_type": "sigmoid"}, 
      "inputs": [[408, 0, 0]]
    }, 
    {
      "op": "Activation", 
      "name": "activation6336", 
      "attr": {"act_type": "tanh"}, 
      "inputs": [[408, 1, 0]]
    }, 
    {
      "op": "_mul", 
      "name": "_mul3802", 
      "inputs": [[412, 0, 0], [413, 0, 0]]
    }, 
    {
      "op": "elemwise_add", 
      "name": "_plus2615", 
      "inputs": [[411, 0, 0], [414, 0, 0]]
    }, 
    {
      "op": "Activation", 
      "name": "activation6339", 
      "attr": {"act_type": "tanh"}, 
      "inputs": [[415, 0, 0]]
    }, 
    {
      "op": "_mul", 
      "name": "_mul3803", 
      "inputs": [[409, 0, 0], [416, 0, 0]]
    }, 
    {
      "op": "FullyConnected", 
      "name": "t11_l0_h2h", 
      "attr": {"num_hidden": "1024"}, 
      "inputs": [[417, 0, 0], [367, 0, 0], [368, 0, 0]]
    }, 
    {
      "op": "elemwise_add", 
      "name": "_plus2616", 
      "inputs": [[353, 0, 0], [418, 0, 0]]
    }, 
    {
      "op": "SliceChannel", 
      "name": "t11_l0_slice", 
      "attr": {"num_outputs": "4"}, 
      "inputs": [[419, 0, 0]]
    }, 
    {
      "op": "Activation", 
      "name": "activation6343", 
      "attr": {"act_type": "sigmoid"}, 
      "inputs": [[420, 3, 0]]
    }, 
    {
      "op": "Activation", 
      "name": "activation6342", 
      "attr": {"act_type": "sigmoid"}, 
      "inputs": [[420, 2, 0]]
    }, 
    {
      "op": "_mul", 
      "name": "_mul3804", 
      "inputs": [[422, 0, 0], [415, 0, 0]]
    }, 
    {
      "op": "Activation", 
      "name": "activation6340", 
      "attr": {"act_type": "sigmoid"}, 
      "inputs": [[420, 0, 0]]
    }, 
    {
      "op": "Activation", 
      "name": "activation6341", 
      "attr": {"act_type": "tanh"}, 
      "inputs": [[420, 1, 0]]
    }, 
    {
      "op": "_mul", 
      "name": "_mul3805", 
      "inputs": [[424, 0, 0], [425, 0, 0]]
    }, 
    {
      "op": "elemwise_add", 
      "name": "_plus2617", 
      "inputs": [[423, 0, 0], [426, 0, 0]]
    }, 
    {
      "op": "Activation", 
      "name": "activation6344", 
      "attr": {"act_type": "tanh"}, 
      "inputs": [[427, 0, 0]]
    }, 
    {
      "op": "_mul", 
      "name": "_mul3806", 
      "inputs": [[421, 0, 0], [428, 0, 0]]
    }, 
    {
      "op": "FullyConnected", 
      "name": "t10_l0_h2h", 
      "attr": {"num_hidden": "1024"}, 
      "inputs": [[429, 0, 0], [367, 0, 0], [368, 0, 0]]
    }, 
    {
      "op": "elemwise_add", 
      "name": "_plus2618", 
      "inputs": [[350, 0, 0], [430, 0, 0]]
    }, 
    {
      "op": "SliceChannel", 
      "name": "t10_l0_slice", 
      "attr": {"num_outputs": "4"}, 
      "inputs": [[431, 0, 0]]
    }, 
    {
      "op": "Activation", 
      "name": "activation6348", 
      "attr": {"act_type": "sigmoid"}, 
      "inputs": [[432, 3, 0]]
    }, 
    {
      "op": "Activation", 
      "name": "activation6347", 
      "attr": {"act_type": "sigmoid"}, 
      "inputs": [[432, 2, 0]]
    }, 
    {
      "op": "_mul", 
      "name": "_mul3807", 
      "inputs": [[434, 0, 0], [427, 0, 0]]
    }, 
    {
      "op": "Activation", 
      "name": "activation6345", 
      "attr": {"act_type": "sigmoid"}, 
      "inputs": [[432, 0, 0]]
    }, 
    {
      "op": "Activation", 
      "name": "activation6346", 
      "attr": {"act_type": "tanh"}, 
      "inputs": [[432, 1, 0]]
    }, 
    {
      "op": "_mul", 
      "name": "_mul3808", 
      "inputs": [[436, 0, 0], [437, 0, 0]]
    }, 
    {
      "op": "elemwise_add", 
      "name": "_plus2619", 
      "inputs": [[435, 0, 0], [438, 0, 0]]
    }, 
    {
      "op": "Activation", 
      "name": "activation6349", 
      "attr": {"act_type": "tanh"}, 
      "inputs": [[439, 0, 0]]
    }, 
    {
      "op": "_mul", 
      "name": "_mul3809", 
      "inputs": [[433, 0, 0], [440, 0, 0]]
    }, 
    {
      "op": "FullyConnected", 
      "name": "t9_l0_h2h", 
      "attr": {"num_hidden": "1024"}, 
      "inputs": [[441, 0, 0], [367, 0, 0], [368, 0, 0]]
    }, 
    {
      "op": "elemwise_add", 
      "name": "_plus2620", 
      "inputs": [[347, 0, 0], [442, 0, 0]]
    }, 
    {
      "op": "SliceChannel", 
      "name": "t9_l0_slice", 
      "attr": {"num_outputs": "4"}, 
      "inputs": [[443, 0, 0]]
    }, 
    {
      "op": "Activation", 
      "name": "activation6353", 
      "attr": {"act_type": "sigmoid"}, 
      "inputs": [[444, 3, 0]]
    }, 
    {
      "op": "Activation", 
      "name": "activation6352", 
      "attr": {"act_type": "sigmoid"}, 
      "inputs": [[444, 2, 0]]
    }, 
    {
      "op": "_mul", 
      "name": "_mul3810", 
      "inputs": [[446, 0, 0], [439, 0, 0]]
    }, 
    {
      "op": "Activation", 
      "name": "activation6350", 
      "attr": {"act_type": "sigmoid"}, 
      "inputs": [[444, 0, 0]]
    }, 
    {
      "op": "Activation", 
      "name": "activation6351", 
      "attr": {"act_type": "tanh"}, 
      "inputs": [[444, 1, 0]]
    }, 
    {
      "op": "_mul", 
      "name": "_mul3811", 
      "inputs": [[448, 0, 0], [449, 0, 0]]
    }, 
    {
      "op": "elemwise_add", 
      "name": "_plus2621", 
      "inputs": [[447, 0, 0], [450, 0, 0]]
    }, 
    {
      "op": "Activation", 
      "name": "activation6354", 
      "attr": {"act_type": "tanh"}, 
      "inputs": [[451, 0, 0]]
    }, 
    {
      "op": "_mul", 
      "name": "_mul3812", 
      "inputs": [[445, 0, 0], [452, 0, 0]]
    }, 
    {
      "op": "FullyConnected", 
      "name": "t8_l0_h2h", 
      "attr": {"num_hidden": "1024"}, 
      "inputs": [[453, 0, 0], [367, 0, 0], [368, 0, 0]]
    }, 
    {
      "op": "elemwise_add", 
      "name": "_plus2622", 
      "inputs": [[344, 0, 0], [454, 0, 0]]
    }, 
    {
      "op": "SliceChannel", 
      "name": "t8_l0_slice", 
      "attr": {"num_outputs": "4"}, 
      "inputs": [[455, 0, 0]]
    }, 
    {
      "op": "Activation", 
      "name": "activation6358", 
      "attr": {"act_type": "sigmoid"}, 
      "inputs": [[456, 3, 0]]
    }, 
    {
      "op": "Activation", 
      "name": "activation6357", 
      "attr": {"act_type": "sigmoid"}, 
      "inputs": [[456, 2, 0]]
    }, 
    {
      "op": "_mul", 
      "name": "_mul3813", 
      "inputs": [[458, 0, 0], [451, 0, 0]]
    }, 
    {
      "op": "Activation", 
      "name": "activation6355", 
      "attr": {"act_type": "sigmoid"}, 
      "inputs": [[456, 0, 0]]
    }, 
    {
      "op": "Activation", 
      "name": "activation6356", 
      "attr": {"act_type": "tanh"}, 
      "inputs": [[456, 1, 0]]
    }, 
    {
      "op": "_mul", 
      "name": "_mul3814", 
      "inputs": [[460, 0, 0], [461, 0, 0]]
    }, 
    {
      "op": "elemwise_add", 
      "name": "_plus2623", 
      "inputs": [[459, 0, 0], [462, 0, 0]]
    }, 
    {
      "op": "Activation", 
      "name": "activation6359", 
      "attr": {"act_type": "tanh"}, 
      "inputs": [[463, 0, 0]]
    }, 
    {
      "op": "_mul", 
      "name": "_mul3815", 
      "inputs": [[457, 0, 0], [464, 0, 0]]
    }, 
    {
      "op": "FullyConnected", 
      "name": "t7_l0_h2h", 
      "attr": {"num_hidden": "1024"}, 
      "inputs": [[465, 0, 0], [367, 0, 0], [368, 0, 0]]
    }, 
    {
      "op": "elemwise_add", 
      "name": "_plus2624", 
      "inputs": [[341, 0, 0], [466, 0, 0]]
    }, 
    {
      "op": "SliceChannel", 
      "name": "t7_l0_slice", 
      "attr": {"num_outputs": "4"}, 
      "inputs": [[467, 0, 0]]
    }, 
    {
      "op": "Activation", 
      "name": "activation6363", 
      "attr": {"act_type": "sigmoid"}, 
      "inputs": [[468, 3, 0]]
    }, 
    {
      "op": "Activation", 
      "name": "activation6362", 
      "attr": {"act_type": "sigmoid"}, 
      "inputs": [[468, 2, 0]]
    }, 
    {
      "op": "_mul", 
      "name": "_mul3816", 
      "inputs": [[470, 0, 0], [463, 0, 0]]
    }, 
    {
      "op": "Activation", 
      "name": "activation6360", 
      "attr": {"act_type": "sigmoid"}, 
      "inputs": [[468, 0, 0]]
    }, 
    {
      "op": "Activation", 
      "name": "activation6361", 
      "attr": {"act_type": "tanh"}, 
      "inputs": [[468, 1, 0]]
    }, 
    {
      "op": "_mul", 
      "name": "_mul3817", 
      "inputs": [[472, 0, 0], [473, 0, 0]]
    }, 
    {
      "op": "elemwise_add", 
      "name": "_plus2625", 
      "inputs": [[471, 0, 0], [474, 0, 0]]
    }, 
    {
      "op": "Activation", 
      "name": "activation6364", 
      "attr": {"act_type": "tanh"}, 
      "inputs": [[475, 0, 0]]
    }, 
    {
      "op": "_mul", 
      "name": "_mul3818", 
      "inputs": [[469, 0, 0], [476, 0, 0]]
    }, 
    {
      "op": "FullyConnected", 
      "name": "t6_l0_h2h", 
      "attr": {"num_hidden": "1024"}, 
      "inputs": [[477, 0, 0], [367, 0, 0], [368, 0, 0]]
    }, 
    {
      "op": "elemwise_add", 
      "name": "_plus2626", 
      "inputs": [[338, 0, 0], [478, 0, 0]]
    }, 
    {
      "op": "SliceChannel", 
      "name": "t6_l0_slice", 
      "attr": {"num_outputs": "4"}, 
      "inputs": [[479, 0, 0]]
    }, 
    {
      "op": "Activation", 
      "name": "activation6368", 
      "attr": {"act_type": "sigmoid"}, 
      "inputs": [[480, 3, 0]]
    }, 
    {
      "op": "Activation", 
      "name": "activation6367", 
      "attr": {"act_type": "sigmoid"}, 
      "inputs": [[480, 2, 0]]
    }, 
    {
      "op": "_mul", 
      "name": "_mul3819", 
      "inputs": [[482, 0, 0], [475, 0, 0]]
    }, 
    {
      "op": "Activation", 
      "name": "activation6365", 
      "attr": {"act_type": "sigmoid"}, 
      "inputs": [[480, 0, 0]]
    }, 
    {
      "op": "Activation", 
      "name": "activation6366", 
      "attr": {"act_type": "tanh"}, 
      "inputs": [[480, 1, 0]]
    }, 
    {
      "op": "_mul", 
      "name": "_mul3820", 
      "inputs": [[484, 0, 0], [485, 0, 0]]
    }, 
    {
      "op": "elemwise_add", 
      "name": "_plus2627", 
      "inputs": [[483, 0, 0], [486, 0, 0]]
    }, 
    {
      "op": "Activation", 
      "name": "activation6369", 
      "attr": {"act_type": "tanh"}, 
      "inputs": [[487, 0, 0]]
    }, 
    {
      "op": "_mul", 
      "name": "_mul3821", 
      "inputs": [[481, 0, 0], [488, 0, 0]]
    }, 
    {
      "op": "FullyConnected", 
      "name": "t5_l0_h2h", 
      "attr": {"num_hidden": "1024"}, 
      "inputs": [[489, 0, 0], [367, 0, 0], [368, 0, 0]]
    }, 
    {
      "op": "elemwise_add", 
      "name": "_plus2628", 
      "inputs": [[335, 0, 0], [490, 0, 0]]
    }, 
    {
      "op": "SliceChannel", 
      "name": "t5_l0_slice", 
      "attr": {"num_outputs": "4"}, 
      "inputs": [[491, 0, 0]]
    }, 
    {
      "op": "Activation", 
      "name": "activation6373", 
      "attr": {"act_type": "sigmoid"}, 
      "inputs": [[492, 3, 0]]
    }, 
    {
      "op": "Activation", 
      "name": "activation6372", 
      "attr": {"act_type": "sigmoid"}, 
      "inputs": [[492, 2, 0]]
    }, 
    {
      "op": "_mul", 
      "name": "_mul3822", 
      "inputs": [[494, 0, 0], [487, 0, 0]]
    }, 
    {
      "op": "Activation", 
      "name": "activation6370", 
      "attr": {"act_type": "sigmoid"}, 
      "inputs": [[492, 0, 0]]
    }, 
    {
      "op": "Activation", 
      "name": "activation6371", 
      "attr": {"act_type": "tanh"}, 
      "inputs": [[492, 1, 0]]
    }, 
    {
      "op": "_mul", 
      "name": "_mul3823", 
      "inputs": [[496, 0, 0], [497, 0, 0]]
    }, 
    {
      "op": "elemwise_add", 
      "name": "_plus2629", 
      "inputs": [[495, 0, 0], [498, 0, 0]]
    }, 
    {
      "op": "Activation", 
      "name": "activation6374", 
      "attr": {"act_type": "tanh"}, 
      "inputs": [[499, 0, 0]]
    }, 
    {
      "op": "_mul", 
      "name": "_mul3824", 
      "inputs": [[493, 0, 0], [500, 0, 0]]
    }, 
    {
      "op": "FullyConnected", 
      "name": "t4_l0_h2h", 
      "attr": {"num_hidden": "1024"}, 
      "inputs": [[501, 0, 0], [367, 0, 0], [368, 0, 0]]
    }, 
    {
      "op": "elemwise_add", 
      "name": "_plus2630", 
      "inputs": [[332, 0, 0], [502, 0, 0]]
    }, 
    {
      "op": "SliceChannel", 
      "name": "t4_l0_slice", 
      "attr": {"num_outputs": "4"}, 
      "inputs": [[503, 0, 0]]
    }, 
    {
      "op": "Activation", 
      "name": "activation6378", 
      "attr": {"act_type": "sigmoid"}, 
      "inputs": [[504, 3, 0]]
    }, 
    {
      "op": "Activation", 
      "name": "activation6377", 
      "attr": {"act_type": "sigmoid"}, 
      "inputs": [[504, 2, 0]]
    }, 
    {
      "op": "_mul", 
      "name": "_mul3825", 
      "inputs": [[506, 0, 0], [499, 0, 0]]
    }, 
    {
      "op": "Activation", 
      "name": "activation6375", 
      "attr": {"act_type": "sigmoid"}, 
      "inputs": [[504, 0, 0]]
    }, 
    {
      "op": "Activation", 
      "name": "activation6376", 
      "attr": {"act_type": "tanh"}, 
      "inputs": [[504, 1, 0]]
    }, 
    {
      "op": "_mul", 
      "name": "_mul3826", 
      "inputs": [[508, 0, 0], [509, 0, 0]]
    }, 
    {
      "op": "elemwise_add", 
      "name": "_plus2631", 
      "inputs": [[507, 0, 0], [510, 0, 0]]
    }, 
    {
      "op": "Activation", 
      "name": "activation6379", 
      "attr": {"act_type": "tanh"}, 
      "inputs": [[511, 0, 0]]
    }, 
    {
      "op": "_mul", 
      "name": "_mul3827", 
      "inputs": [[505, 0, 0], [512, 0, 0]]
    }, 
    {
      "op": "FullyConnected", 
      "name": "t3_l0_h2h", 
      "attr": {"num_hidden": "1024"}, 
      "inputs": [[513, 0, 0], [367, 0, 0], [368, 0, 0]]
    }, 
    {
      "op": "elemwise_add", 
      "name": "_plus2632", 
      "inputs": [[329, 0, 0], [514, 0, 0]]
    }, 
    {
      "op": "SliceChannel", 
      "name": "t3_l0_slice", 
      "attr": {"num_outputs": "4"}, 
      "inputs": [[515, 0, 0]]
    }, 
    {
      "op": "Activation", 
      "name": "activation6383", 
      "attr": {"act_type": "sigmoid"}, 
      "inputs": [[516, 3, 0]]
    }, 
    {
      "op": "Activation", 
      "name": "activation6382", 
      "attr": {"act_type": "sigmoid"}, 
      "inputs": [[516, 2, 0]]
    }, 
    {
      "op": "_mul", 
      "name": "_mul3828", 
      "inputs": [[518, 0, 0], [511, 0, 0]]
    }, 
    {
      "op": "Activation", 
      "name": "activation6380", 
      "attr": {"act_type": "sigmoid"}, 
      "inputs": [[516, 0, 0]]
    }, 
    {
      "op": "Activation", 
      "name": "activation6381", 
      "attr": {"act_type": "tanh"}, 
      "inputs": [[516, 1, 0]]
    }, 
    {
      "op": "_mul", 
      "name": "_mul3829", 
      "inputs": [[520, 0, 0], [521, 0, 0]]
    }, 
    {
      "op": "elemwise_add", 
      "name": "_plus2633", 
      "inputs": [[519, 0, 0], [522, 0, 0]]
    }, 
    {
      "op": "Activation", 
      "name": "activation6384", 
      "attr": {"act_type": "tanh"}, 
      "inputs": [[523, 0, 0]]
    }, 
    {
      "op": "_mul", 
      "name": "_mul3830", 
      "inputs": [[517, 0, 0], [524, 0, 0]]
    }, 
    {
      "op": "FullyConnected", 
      "name": "t2_l0_h2h", 
      "attr": {"num_hidden": "1024"}, 
      "inputs": [[525, 0, 0], [367, 0, 0], [368, 0, 0]]
    }, 
    {
      "op": "elemwise_add", 
      "name": "_plus2634", 
      "inputs": [[326, 0, 0], [526, 0, 0]]
    }, 
    {
      "op": "SliceChannel", 
      "name": "t2_l0_slice", 
      "attr": {"num_outputs": "4"}, 
      "inputs": [[527, 0, 0]]
    }, 
    {
      "op": "Activation", 
      "name": "activation6388", 
      "attr": {"act_type": "sigmoid"}, 
      "inputs": [[528, 3, 0]]
    }, 
    {
      "op": "Activation", 
      "name": "activation6387", 
      "attr": {"act_type": "sigmoid"}, 
      "inputs": [[528, 2, 0]]
    }, 
    {
      "op": "_mul", 
      "name": "_mul3831", 
      "inputs": [[530, 0, 0], [523, 0, 0]]
    }, 
    {
      "op": "Activation", 
      "name": "activation6385", 
      "attr": {"act_type": "sigmoid"}, 
      "inputs": [[528, 0, 0]]
    }, 
    {
      "op": "Activation", 
      "name": "activation6386", 
      "attr": {"act_type": "tanh"}, 
      "inputs": [[528, 1, 0]]
    }, 
    {
      "op": "_mul", 
      "name": "_mul3832", 
      "inputs": [[532, 0, 0], [533, 0, 0]]
    }, 
    {
      "op": "elemwise_add", 
      "name": "_plus2635", 
      "inputs": [[531, 0, 0], [534, 0, 0]]
    }, 
    {
      "op": "Activation", 
      "name": "activation6389", 
      "attr": {"act_type": "tanh"}, 
      "inputs": [[535, 0, 0]]
    }, 
    {
      "op": "_mul", 
      "name": "_mul3833", 
      "inputs": [[529, 0, 0], [536, 0, 0]]
    }, 
    {
      "op": "FullyConnected", 
      "name": "t1_l0_h2h", 
      "attr": {"num_hidden": "1024"}, 
      "inputs": [[537, 0, 0], [367, 0, 0], [368, 0, 0]]
    }, 
    {
      "op": "elemwise_add", 
      "name": "_plus2636", 
      "inputs": [[323, 0, 0], [538, 0, 0]]
    }, 
    {
      "op": "SliceChannel", 
      "name": "t1_l0_slice", 
      "attr": {"num_outputs": "4"}, 
      "inputs": [[539, 0, 0]]
    }, 
    {
      "op": "Activation", 
      "name": "activation6393", 
      "attr": {"act_type": "sigmoid"}, 
      "inputs": [[540, 3, 0]]
    }, 
    {
      "op": "Activation", 
      "name": "activation6392", 
      "attr": {"act_type": "sigmoid"}, 
      "inputs": [[540, 2, 0]]
    }, 
    {
      "op": "_mul", 
      "name": "_mul3834", 
      "inputs": [[542, 0, 0], [535, 0, 0]]
    }, 
    {
      "op": "Activation", 
      "name": "activation6390", 
      "attr": {"act_type": "sigmoid"}, 
      "inputs": [[540, 0, 0]]
    }, 
    {
      "op": "Activation", 
      "name": "activation6391", 
      "attr": {"act_type": "tanh"}, 
      "inputs": [[540, 1, 0]]
    }, 
    {
      "op": "_mul", 
      "name": "_mul3835", 
      "inputs": [[544, 0, 0], [545, 0, 0]]
    }, 
    {
      "op": "elemwise_add", 
      "name": "_plus2637", 
      "inputs": [[543, 0, 0], [546, 0, 0]]
    }, 
    {
      "op": "Activation", 
      "name": "activation6394", 
      "attr": {"act_type": "tanh"}, 
      "inputs": [[547, 0, 0]]
    }, 
    {
      "op": "_mul", 
      "name": "_mul3836", 
      "inputs": [[541, 0, 0], [548, 0, 0]]
    }, 
    {
      "op": "FullyConnected", 
      "name": "t0_l0_h2h", 
      "attr": {"num_hidden": "1024"}, 
      "inputs": [[549, 0, 0], [367, 0, 0], [368, 0, 0]]
    }, 
    {
      "op": "elemwise_add", 
      "name": "_plus2638", 
      "inputs": [[320, 0, 0], [550, 0, 0]]
    }, 
    {
      "op": "SliceChannel", 
      "name": "t0_l0_slice", 
      "attr": {"num_outputs": "4"}, 
      "inputs": [[551, 0, 0]]
    }, 
    {
      "op": "Activation", 
      "name": "activation6398", 
      "attr": {"act_type": "sigmoid"}, 
      "inputs": [[552, 3, 0]]
    }, 
    {
      "op": "Activation", 
      "name": "activation6397", 
      "attr": {"act_type": "sigmoid"}, 
      "inputs": [[552, 2, 0]]
    }, 
    {
      "op": "_mul", 
      "name": "_mul3837", 
      "inputs": [[554, 0, 0], [547, 0, 0]]
    }, 
    {
      "op": "Activation", 
      "name": "activation6395", 
      "attr": {"act_type": "sigmoid"}, 
      "inputs": [[552, 0, 0]]
    }, 
    {
      "op": "Activation", 
      "name": "activation6396", 
      "attr": {"act_type": "tanh"}, 
      "inputs": [[552, 1, 0]]
    }, 
    {
      "op": "_mul", 
      "name": "_mul3838", 
      "inputs": [[556, 0, 0], [557, 0, 0]]
    }, 
    {
      "op": "elemwise_add", 
      "name": "_plus2639", 
      "inputs": [[555, 0, 0], [558, 0, 0]]
    }, 
    {
      "op": "Activation", 
      "name": "activation6399", 
      "attr": {"act_type": "tanh"}, 
      "inputs": [[559, 0, 0]]
    }, 
    {
      "op": "_mul", 
      "name": "_mul3839", 
      "inputs": [[553, 0, 0], [560, 0, 0]]
    }, 
    {
      "op": "Concat", 
      "name": "concat628", 
      "attr": {
        "dim": "1", 
        "num_args": "2"
      }, 
      "inputs": [[315, 0, 0], [561, 0, 0]]
    }, 
    {
      "op": "Flatten", 
      "name": "flatten1280", 
      "inputs": [[562, 0, 0]]
    }, 
    {
      "op": "null", 
      "name": "f_l1_i2h_weight", 
      "inputs": []
    }, 
    {
      "op": "null", 
      "name": "f_l1_i2h_bias", 
      "inputs": []
    }, 
    {
      "op": "FullyConnected", 
      "name": "t0_l1_i2h", 
      "attr": {"num_hidden": "1024"}, 
      "inputs": [[563, 0, 0], [564, 0, 0], [565, 0, 0]]
    }, 
    {
      "op": "null", 
      "name": "f_l1_init_h", 
      "inputs": []
    }, 
    {
      "op": "null", 
      "name": "f_l1_h2h_weight", 
      "inputs": []
    }, 
    {
      "op": "null", 
      "name": "f_l1_h2h_bias", 
      "inputs": []
    }, 
    {
      "op": "FullyConnected", 
      "name": "t0_l1_h2h", 
      "attr": {"num_hidden": "1024"}, 
      "inputs": [[567, 0, 0], [568, 0, 0], [569, 0, 0]]
    }, 
    {
      "op": "elemwise_add", 
      "name": "_plus2640", 
      "inputs": [[566, 0, 0], [570, 0, 0]]
    }, 
    {
      "op": "SliceChannel", 
      "name": "t0_l1_slice", 
      "attr": {"num_outputs": "4"}, 
      "inputs": [[571, 0, 0]]
    }, 
    {
      "op": "Activation", 
      "name": "activation6403", 
      "attr": {"act_type": "sigmoid"}, 
      "inputs": [[572, 3, 0]]
    }, 
    {
      "op": "Activation", 
      "name": "activation6402", 
      "attr": {"act_type": "sigmoid"}, 
      "inputs": [[572, 2, 0]]
    }, 
    {
      "op": "null", 
      "name": "f_l1_init_c", 
      "inputs": []
    }, 
    {
      "op": "_mul", 
      "name": "_mul3840", 
      "inputs": [[574, 0, 0], [575, 0, 0]]
    }, 
    {
      "op": "Activation", 
      "name": "activation6400", 
      "attr": {"act_type": "sigmoid"}, 
      "inputs": [[572, 0, 0]]
    }, 
    {
      "op": "Activation", 
      "name": "activation6401", 
      "attr": {"act_type": "tanh"}, 
      "inputs": [[572, 1, 0]]
    }, 
    {
      "op": "_mul", 
      "name": "_mul3841", 
      "inputs": [[577, 0, 0], [578, 0, 0]]
    }, 
    {
      "op": "elemwise_add", 
      "name": "_plus2641", 
      "inputs": [[576, 0, 0], [579, 0, 0]]
    }, 
    {
      "op": "Activation", 
      "name": "activation6404", 
      "attr": {"act_type": "tanh"}, 
      "inputs": [[580, 0, 0]]
    }, 
    {
      "op": "_mul", 
      "name": "_mul3842", 
      "inputs": [[573, 0, 0], [581, 0, 0]]
    }, 
    {
      "op": "Dropout", 
      "name": "dropout1280", 
      "attr": {"p": "0.5"}, 
      "inputs": [[582, 0, 0]]
    }, 
    {
      "op": "Flatten", 
      "name": "flatten1311", 
      "inputs": [[562, 0, 0]]
    }, 
    {
      "op": "null", 
      "name": "b_l1_i2h_weight", 
      "inputs": []
    }, 
    {
      "op": "null", 
      "name": "b_l1_i2h_bias", 
      "inputs": []
    }, 
    {
      "op": "FullyConnected", 
      "name": "t0_l1_i2h", 
      "attr": {"num_hidden": "1024"}, 
      "inputs": [[584, 0, 0], [585, 0, 0], [586, 0, 0]]
    }, 
    {
      "op": "Flatten", 
      "name": "flatten1249", 
      "inputs": [[294, 1, 0]]
    }, 
    {
      "op": "Dropout", 
      "name": "dropout1249", 
      "attr": {"p": "0.5"}, 
      "inputs": [[588, 0, 0]]
    }, 
    {
      "op": "FullyConnected", 
      "name": "t1_l0_i2h", 
      "attr": {"num_hidden": "1024"}, 
      "inputs": [[589, 0, 0], [297, 0, 0], [298, 0, 0]]
    }, 
    {
      "op": "FullyConnected", 
      "name": "t1_l0_h2h", 
      "attr": {"num_hidden": "1024"}, 
      "inputs": [[315, 0, 0], [301, 0, 0], [302, 0, 0]]
    }, 
    {
      "op": "elemwise_add", 
      "name": "_plus2578", 
      "inputs": [[590, 0, 0], [591, 0, 0]]
    }, 
    {
      "op": "SliceChannel", 
      "name": "t1_l0_slice", 
      "attr": {"num_outputs": "4"}, 
      "inputs": [[592, 0, 0]]
    }, 
    {
      "op": "Activation", 
      "name": "activation6248", 
      "attr": {"act_type": "sigmoid"}, 
      "inputs": [[593, 3, 0]]
    }, 
    {
      "op": "Activation", 
      "name": "activation6247", 
      "attr": {"act_type": "sigmoid"}, 
      "inputs": [[593, 2, 0]]
    }, 
    {
      "op": "_mul", 
      "name": "_mul3747", 
      "inputs": [[595, 0, 0], [313, 0, 0]]
    }, 
    {
      "op": "Activation", 
      "name": "activation6245", 
      "attr": {"act_type": "sigmoid"}, 
      "inputs": [[593, 0, 0]]
    }, 
    {
      "op": "Activation", 
      "name": "activation6246", 
      "attr": {"act_type": "tanh"}, 
      "inputs": [[593, 1, 0]]
    }, 
    {
      "op": "_mul", 
      "name": "_mul3748", 
      "inputs": [[597, 0, 0], [598, 0, 0]]
    }, 
    {
      "op": "elemwise_add", 
      "name": "_plus2579", 
      "inputs": [[596, 0, 0], [599, 0, 0]]
    }, 
    {
      "op": "Activation", 
      "name": "activation6249", 
      "attr": {"act_type": "tanh"}, 
      "inputs": [[600, 0, 0]]
    }, 
    {
      "op": "_mul", 
      "name": "_mul3749", 
      "inputs": [[594, 0, 0], [601, 0, 0]]
    }, 
    {
      "op": "Concat", 
      "name": "concat629", 
      "attr": {
        "dim": "1", 
        "num_args": "2"
      }, 
      "inputs": [[602, 0, 0], [549, 0, 0]]
    }, 
    {
      "op": "Flatten", 
      "name": "flatten1310", 
      "inputs": [[603, 0, 0]]
    }, 
    {
      "op": "FullyConnected", 
      "name": "t1_l1_i2h", 
      "attr": {"num_hidden": "1024"}, 
      "inputs": [[604, 0, 0], [585, 0, 0], [586, 0, 0]]
    }, 
    {
      "op": "Flatten", 
      "name": "flatten1250", 
      "inputs": [[294, 2, 0]]
    }, 
    {
      "op": "Dropout", 
      "name": "dropout1250", 
      "attr": {"p": "0.5"}, 
      "inputs": [[606, 0, 0]]
    }, 
    {
      "op": "FullyConnected", 
      "name": "t2_l0_i2h", 
      "attr": {"num_hidden": "1024"}, 
      "inputs": [[607, 0, 0], [297, 0, 0], [298, 0, 0]]
    }, 
    {
      "op": "FullyConnected", 
      "name": "t2_l0_h2h", 
      "attr": {"num_hidden": "1024"}, 
      "inputs": [[602, 0, 0], [301, 0, 0], [302, 0, 0]]
    }, 
    {
      "op": "elemwise_add", 
      "name": "_plus2580", 
      "inputs": [[608, 0, 0], [609, 0, 0]]
    }, 
    {
      "op": "SliceChannel", 
      "name": "t2_l0_slice", 
      "attr": {"num_outputs": "4"}, 
      "inputs": [[610, 0, 0]]
    }, 
    {
      "op": "Activation", 
      "name": "activation6253", 
      "attr": {"act_type": "sigmoid"}, 
      "inputs": [[611, 3, 0]]
    }, 
    {
      "op": "Activation", 
      "name": "activation6252", 
      "attr": {"act_type": "sigmoid"}, 
      "inputs": [[611, 2, 0]]
    }, 
    {
      "op": "_mul", 
      "name": "_mul3750", 
      "inputs": [[613, 0, 0], [600, 0, 0]]
    }, 
    {
      "op": "Activation", 
      "name": "activation6250", 
      "attr": {"act_type": "sigmoid"}, 
      "inputs": [[611, 0, 0]]
    }, 
    {
      "op": "Activation", 
      "name": "activation6251", 
      "attr": {"act_type": "tanh"}, 
      "inputs": [[611, 1, 0]]
    }, 
    {
      "op": "_mul", 
      "name": "_mul3751", 
      "inputs": [[615, 0, 0], [616, 0, 0]]
    }, 
    {
      "op": "elemwise_add", 
      "name": "_plus2581", 
      "inputs": [[614, 0, 0], [617, 0, 0]]
    }, 
    {
      "op": "Activation", 
      "name": "activation6254", 
      "attr": {"act_type": "tanh"}, 
      "inputs": [[618, 0, 0]]
    }, 
    {
      "op": "_mul", 
      "name": "_mul3752", 
      "inputs": [[612, 0, 0], [619, 0, 0]]
    }, 
    {
      "op": "Concat", 
      "name": "concat630", 
      "attr": {
        "dim": "1", 
        "num_args": "2"
      }, 
      "inputs": [[620, 0, 0], [537, 0, 0]]
    }, 
    {
      "op": "Flatten", 
      "name": "flatten1309", 
      "inputs": [[621, 0, 0]]
    }, 
    {
      "op": "FullyConnected", 
      "name": "t2_l1_i2h", 
      "attr": {"num_hidden": "1024"}, 
      "inputs": [[622, 0, 0], [585, 0, 0], [586, 0, 0]]
    }, 
    {
      "op": "Flatten", 
      "name": "flatten1251", 
      "inputs": [[294, 3, 0]]
    }, 
    {
      "op": "Dropout", 
      "name": "dropout1251", 
      "attr": {"p": "0.5"}, 
      "inputs": [[624, 0, 0]]
    }, 
    {
      "op": "FullyConnected", 
      "name": "t3_l0_i2h", 
      "attr": {"num_hidden": "1024"}, 
      "inputs": [[625, 0, 0], [297, 0, 0], [298, 0, 0]]
    }, 
    {
      "op": "FullyConnected", 
      "name": "t3_l0_h2h", 
      "attr": {"num_hidden": "1024"}, 
      "inputs": [[620, 0, 0], [301, 0, 0], [302, 0, 0]]
    }, 
    {
      "op": "elemwise_add", 
      "name": "_plus2582", 
      "inputs": [[626, 0, 0], [627, 0, 0]]
    }, 
    {
      "op": "SliceChannel", 
      "name": "t3_l0_slice", 
      "attr": {"num_outputs": "4"}, 
      "inputs": [[628, 0, 0]]
    }, 
    {
      "op": "Activation", 
      "name": "activation6258", 
      "attr": {"act_type": "sigmoid"}, 
      "inputs": [[629, 3, 0]]
    }, 
    {
      "op": "Activation", 
      "name": "activation6257", 
      "attr": {"act_type": "sigmoid"}, 
      "inputs": [[629, 2, 0]]
    }, 
    {
      "op": "_mul", 
      "name": "_mul3753", 
      "inputs": [[631, 0, 0], [618, 0, 0]]
    }, 
    {
      "op": "Activation", 
      "name": "activation6255", 
      "attr": {"act_type": "sigmoid"}, 
      "inputs": [[629, 0, 0]]
    }, 
    {
      "op": "Activation", 
      "name": "activation6256", 
      "attr": {"act_type": "tanh"}, 
      "inputs": [[629, 1, 0]]
    }, 
    {
      "op": "_mul", 
      "name": "_mul3754", 
      "inputs": [[633, 0, 0], [634, 0, 0]]
    }, 
    {
      "op": "elemwise_add", 
      "name": "_plus2583", 
      "inputs": [[632, 0, 0], [635, 0, 0]]
    }, 
    {
      "op": "Activation", 
      "name": "activation6259", 
      "attr": {"act_type": "tanh"}, 
      "inputs": [[636, 0, 0]]
    }, 
    {
      "op": "_mul", 
      "name": "_mul3755", 
      "inputs": [[630, 0, 0], [637, 0, 0]]
    }, 
    {
      "op": "Concat", 
      "name": "concat631", 
      "attr": {
        "dim": "1", 
        "num_args": "2"
      }, 
      "inputs": [[638, 0, 0], [525, 0, 0]]
    }, 
    {
      "op": "Flatten", 
      "name": "flatten1308", 
      "inputs": [[639, 0, 0]]
    }, 
    {
      "op": "FullyConnected", 
      "name": "t3_l1_i2h", 
      "attr": {"num_hidden": "1024"}, 
      "inputs": [[640, 0, 0], [585, 0, 0], [586, 0, 0]]
    }, 
    {
      "op": "Flatten", 
      "name": "flatten1252", 
      "inputs": [[294, 4, 0]]
    }, 
    {
      "op": "Dropout", 
      "name": "dropout1252", 
      "attr": {"p": "0.5"}, 
      "inputs": [[642, 0, 0]]
    }, 
    {
      "op": "FullyConnected", 
      "name": "t4_l0_i2h", 
      "attr": {"num_hidden": "1024"}, 
      "inputs": [[643, 0, 0], [297, 0, 0], [298, 0, 0]]
    }, 
    {
      "op": "FullyConnected", 
      "name": "t4_l0_h2h", 
      "attr": {"num_hidden": "1024"}, 
      "inputs": [[638, 0, 0], [301, 0, 0], [302, 0, 0]]
    }, 
    {
      "op": "elemwise_add", 
      "name": "_plus2584", 
      "inputs": [[644, 0, 0], [645, 0, 0]]
    }, 
    {
      "op": "SliceChannel", 
      "name": "t4_l0_slice", 
      "attr": {"num_outputs": "4"}, 
      "inputs": [[646, 0, 0]]
    }, 
    {
      "op": "Activation", 
      "name": "activation6263", 
      "attr": {"act_type": "sigmoid"}, 
      "inputs": [[647, 3, 0]]
    }, 
    {
      "op": "Activation", 
      "name": "activation6262", 
      "attr": {"act_type": "sigmoid"}, 
      "inputs": [[647, 2, 0]]
    }, 
    {
      "op": "_mul", 
      "name": "_mul3756", 
      "inputs": [[649, 0, 0], [636, 0, 0]]
    }, 
    {
      "op": "Activation", 
      "name": "activation6260", 
      "attr": {"act_type": "sigmoid"}, 
      "inputs": [[647, 0, 0]]
    }, 
    {
      "op": "Activation", 
      "name": "activation6261", 
      "attr": {"act_type": "tanh"}, 
      "inputs": [[647, 1, 0]]
    }, 
    {
      "op": "_mul", 
      "name": "_mul3757", 
      "inputs": [[651, 0, 0], [652, 0, 0]]
    }, 
    {
      "op": "elemwise_add", 
      "name": "_plus2585", 
      "inputs": [[650, 0, 0], [653, 0, 0]]
    }, 
    {
      "op": "Activation", 
      "name": "activation6264", 
      "attr": {"act_type": "tanh"}, 
      "inputs": [[654, 0, 0]]
    }, 
    {
      "op": "_mul", 
      "name": "_mul3758", 
      "inputs": [[648, 0, 0], [655, 0, 0]]
    }, 
    {
      "op": "Concat", 
      "name": "concat632", 
      "attr": {
        "dim": "1", 
        "num_args": "2"
      }, 
      "inputs": [[656, 0, 0], [513, 0, 0]]
    }, 
    {
      "op": "Flatten", 
      "name": "flatten1307", 
      "inputs": [[657, 0, 0]]
    }, 
    {
      "op": "FullyConnected", 
      "name": "t4_l1_i2h", 
      "attr": {"num_hidden": "1024"}, 
      "inputs": [[658, 0, 0], [585, 0, 0], [586, 0, 0]]
    }, 
    {
      "op": "Flatten", 
      "name": "flatten1253", 
      "inputs": [[294, 5, 0]]
    }, 
    {
      "op": "Dropout", 
      "name": "dropout1253", 
      "attr": {"p": "0.5"}, 
      "inputs": [[660, 0, 0]]
    }, 
    {
      "op": "FullyConnected", 
      "name": "t5_l0_i2h", 
      "attr": {"num_hidden": "1024"}, 
      "inputs": [[661, 0, 0], [297, 0, 0], [298, 0, 0]]
    }, 
    {
      "op": "FullyConnected", 
      "name": "t5_l0_h2h", 
      "attr": {"num_hidden": "1024"}, 
      "inputs": [[656, 0, 0], [301, 0, 0], [302, 0, 0]]
    }, 
    {
      "op": "elemwise_add", 
      "name": "_plus2586", 
      "inputs": [[662, 0, 0], [663, 0, 0]]
    }, 
    {
      "op": "SliceChannel", 
      "name": "t5_l0_slice", 
      "attr": {"num_outputs": "4"}, 
      "inputs": [[664, 0, 0]]
    }, 
    {
      "op": "Activation", 
      "name": "activation6268", 
      "attr": {"act_type": "sigmoid"}, 
      "inputs": [[665, 3, 0]]
    }, 
    {
      "op": "Activation", 
      "name": "activation6267", 
      "attr": {"act_type": "sigmoid"}, 
      "inputs": [[665, 2, 0]]
    }, 
    {
      "op": "_mul", 
      "name": "_mul3759", 
      "inputs": [[667, 0, 0], [654, 0, 0]]
    }, 
    {
      "op": "Activation", 
      "name": "activation6265", 
      "attr": {"act_type": "sigmoid"}, 
      "inputs": [[665, 0, 0]]
    }, 
    {
      "op": "Activation", 
      "name": "activation6266", 
      "attr": {"act_type": "tanh"}, 
      "inputs": [[665, 1, 0]]
    }, 
    {
      "op": "_mul", 
      "name": "_mul3760", 
      "inputs": [[669, 0, 0], [670, 0, 0]]
    }, 
    {
      "op": "elemwise_add", 
      "name": "_plus2587", 
      "inputs": [[668, 0, 0], [671, 0, 0]]
    }, 
    {
      "op": "Activation", 
      "name": "activation6269", 
      "attr": {"act_type": "tanh"}, 
      "inputs": [[672, 0, 0]]
    }, 
    {
      "op": "_mul", 
      "name": "_mul3761", 
      "inputs": [[666, 0, 0], [673, 0, 0]]
    }, 
    {
      "op": "Concat", 
      "name": "concat633", 
      "attr": {
        "dim": "1", 
        "num_args": "2"
      }, 
      "inputs": [[674, 0, 0], [501, 0, 0]]
    }, 
    {
      "op": "Flatten", 
      "name": "flatten1306", 
      "inputs": [[675, 0, 0]]
    }, 
    {
      "op": "FullyConnected", 
      "name": "t5_l1_i2h", 
      "attr": {"num_hidden": "1024"}, 
      "inputs": [[676, 0, 0], [585, 0, 0], [586, 0, 0]]
    }, 
    {
      "op": "Flatten", 
      "name": "flatten1254", 
      "inputs": [[294, 6, 0]]
    }, 
    {
      "op": "Dropout", 
      "name": "dropout1254", 
      "attr": {"p": "0.5"}, 
      "inputs": [[678, 0, 0]]
    }, 
    {
      "op": "FullyConnected", 
      "name": "t6_l0_i2h", 
      "attr": {"num_hidden": "1024"}, 
      "inputs": [[679, 0, 0], [297, 0, 0], [298, 0, 0]]
    }, 
    {
      "op": "FullyConnected", 
      "name": "t6_l0_h2h", 
      "attr": {"num_hidden": "1024"}, 
      "inputs": [[674, 0, 0], [301, 0, 0], [302, 0, 0]]
    }, 
    {
      "op": "elemwise_add", 
      "name": "_plus2588", 
      "inputs": [[680, 0, 0], [681, 0, 0]]
    }, 
    {
      "op": "SliceChannel", 
      "name": "t6_l0_slice", 
      "attr": {"num_outputs": "4"}, 
      "inputs": [[682, 0, 0]]
    }, 
    {
      "op": "Activation", 
      "name": "activation6273", 
      "attr": {"act_type": "sigmoid"}, 
      "inputs": [[683, 3, 0]]
    }, 
    {
      "op": "Activation", 
      "name": "activation6272", 
      "attr": {"act_type": "sigmoid"}, 
      "inputs": [[683, 2, 0]]
    }, 
    {
      "op": "_mul", 
      "name": "_mul3762", 
      "inputs": [[685, 0, 0], [672, 0, 0]]
    }, 
    {
      "op": "Activation", 
      "name": "activation6270", 
      "attr": {"act_type": "sigmoid"}, 
      "inputs": [[683, 0, 0]]
    }, 
    {
      "op": "Activation", 
      "name": "activation6271", 
      "attr": {"act_type": "tanh"}, 
      "inputs": [[683, 1, 0]]
    }, 
    {
      "op": "_mul", 
      "name": "_mul3763", 
      "inputs": [[687, 0, 0], [688, 0, 0]]
    }, 
    {
      "op": "elemwise_add", 
      "name": "_plus2589", 
      "inputs": [[686, 0, 0], [689, 0, 0]]
    }, 
    {
      "op": "Activation", 
      "name": "activation6274", 
      "attr": {"act_type": "tanh"}, 
      "inputs": [[690, 0, 0]]
    }, 
    {
      "op": "_mul", 
      "name": "_mul3764", 
      "inputs": [[684, 0, 0], [691, 0, 0]]
    }, 
    {
      "op": "Concat", 
      "name": "concat634", 
      "attr": {
        "dim": "1", 
        "num_args": "2"
      }, 
      "inputs": [[692, 0, 0], [489, 0, 0]]
    }, 
    {
      "op": "Flatten", 
      "name": "flatten1305", 
      "inputs": [[693, 0, 0]]
    }, 
    {
      "op": "FullyConnected", 
      "name": "t6_l1_i2h", 
      "attr": {"num_hidden": "1024"}, 
      "inputs": [[694, 0, 0], [585, 0, 0], [586, 0, 0]]
    }, 
    {
      "op": "Flatten", 
      "name": "flatten1255", 
      "inputs": [[294, 7, 0]]
    }, 
    {
      "op": "Dropout", 
      "name": "dropout1255", 
      "attr": {"p": "0.5"}, 
      "inputs": [[696, 0, 0]]
    }, 
    {
      "op": "FullyConnected", 
      "name": "t7_l0_i2h", 
      "attr": {"num_hidden": "1024"}, 
      "inputs": [[697, 0, 0], [297, 0, 0], [298, 0, 0]]
    }, 
    {
      "op": "FullyConnected", 
      "name": "t7_l0_h2h", 
      "attr": {"num_hidden": "1024"}, 
      "inputs": [[692, 0, 0], [301, 0, 0], [302, 0, 0]]
    }, 
    {
      "op": "elemwise_add", 
      "name": "_plus2590", 
      "inputs": [[698, 0, 0], [699, 0, 0]]
    }, 
    {
      "op": "SliceChannel", 
      "name": "t7_l0_slice", 
      "attr": {"num_outputs": "4"}, 
      "inputs": [[700, 0, 0]]
    }, 
    {
      "op": "Activation", 
      "name": "activation6278", 
      "attr": {"act_type": "sigmoid"}, 
      "inputs": [[701, 3, 0]]
    }, 
    {
      "op": "Activation", 
      "name": "activation6277", 
      "attr": {"act_type": "sigmoid"}, 
      "inputs": [[701, 2, 0]]
    }, 
    {
      "op": "_mul", 
      "name": "_mul3765", 
      "inputs": [[703, 0, 0], [690, 0, 0]]
    }, 
    {
      "op": "Activation", 
      "name": "activation6275", 
      "attr": {"act_type": "sigmoid"}, 
      "inputs": [[701, 0, 0]]
    }, 
    {
      "op": "Activation", 
      "name": "activation6276", 
      "attr": {"act_type": "tanh"}, 
      "inputs": [[701, 1, 0]]
    }, 
    {
      "op": "_mul", 
      "name": "_mul3766", 
      "inputs": [[705, 0, 0], [706, 0, 0]]
    }, 
    {
      "op": "elemwise_add", 
      "name": "_plus2591", 
      "inputs": [[704, 0, 0], [707, 0, 0]]
    }, 
    {
      "op": "Activation", 
      "name": "activation6279", 
      "attr": {"act_type": "tanh"}, 
      "inputs": [[708, 0, 0]]
    }, 
    {
      "op": "_mul", 
      "name": "_mul3767", 
      "inputs": [[702, 0, 0], [709, 0, 0]]
    }, 
    {
      "op": "Concat", 
      "name": "concat635", 
      "attr": {
        "dim": "1", 
        "num_args": "2"
      }, 
      "inputs": [[710, 0, 0], [477, 0, 0]]
    }, 
    {
      "op": "Flatten", 
      "name": "flatten1304", 
      "inputs": [[711, 0, 0]]
    }, 
    {
      "op": "FullyConnected", 
      "name": "t7_l1_i2h", 
      "attr": {"num_hidden": "1024"}, 
      "inputs": [[712, 0, 0], [585, 0, 0], [586, 0, 0]]
    }, 
    {
      "op": "Flatten", 
      "name": "flatten1256", 
      "inputs": [[294, 8, 0]]
    }, 
    {
      "op": "Dropout", 
      "name": "dropout1256", 
      "attr": {"p": "0.5"}, 
      "inputs": [[714, 0, 0]]
    }, 
    {
      "op": "FullyConnected", 
      "name": "t8_l0_i2h", 
      "attr": {"num_hidden": "1024"}, 
      "inputs": [[715, 0, 0], [297, 0, 0], [298, 0, 0]]
    }, 
    {
      "op": "FullyConnected", 
      "name": "t8_l0_h2h", 
      "attr": {"num_hidden": "1024"}, 
      "inputs": [[710, 0, 0], [301, 0, 0], [302, 0, 0]]
    }, 
    {
      "op": "elemwise_add", 
      "name": "_plus2592", 
      "inputs": [[716, 0, 0], [717, 0, 0]]
    }, 
    {
      "op": "SliceChannel", 
      "name": "t8_l0_slice", 
      "attr": {"num_outputs": "4"}, 
      "inputs": [[718, 0, 0]]
    }, 
    {
      "op": "Activation", 
      "name": "activation6283", 
      "attr": {"act_type": "sigmoid"}, 
      "inputs": [[719, 3, 0]]
    }, 
    {
      "op": "Activation", 
      "name": "activation6282", 
      "attr": {"act_type": "sigmoid"}, 
      "inputs": [[719, 2, 0]]
    }, 
    {
      "op": "_mul", 
      "name": "_mul3768", 
      "inputs": [[721, 0, 0], [708, 0, 0]]
    }, 
    {
      "op": "Activation", 
      "name": "activation6280", 
      "attr": {"act_type": "sigmoid"}, 
      "inputs": [[719, 0, 0]]
    }, 
    {
      "op": "Activation", 
      "name": "activation6281", 
      "attr": {"act_type": "tanh"}, 
      "inputs": [[719, 1, 0]]
    }, 
    {
      "op": "_mul", 
      "name": "_mul3769", 
      "inputs": [[723, 0, 0], [724, 0, 0]]
    }, 
    {
      "op": "elemwise_add", 
      "name": "_plus2593", 
      "inputs": [[722, 0, 0], [725, 0, 0]]
    }, 
    {
      "op": "Activation", 
      "name": "activation6284", 
      "attr": {"act_type": "tanh"}, 
      "inputs": [[726, 0, 0]]
    }, 
    {
      "op": "_mul", 
      "name": "_mul3770", 
      "inputs": [[720, 0, 0], [727, 0, 0]]
    }, 
    {
      "op": "Concat", 
      "name": "concat636", 
      "attr": {
        "dim": "1", 
        "num_args": "2"
      }, 
      "inputs": [[728, 0, 0], [465, 0, 0]]
    }, 
    {
      "op": "Flatten", 
      "name": "flatten1303", 
      "inputs": [[729, 0, 0]]
    }, 
    {
      "op": "FullyConnected", 
      "name": "t8_l1_i2h", 
      "attr": {"num_hidden": "1024"}, 
      "inputs": [[730, 0, 0], [585, 0, 0], [586, 0, 0]]
    }, 
    {
      "op": "Flatten", 
      "name": "flatten1257", 
      "inputs": [[294, 9, 0]]
    }, 
    {
      "op": "Dropout", 
      "name": "dropout1257", 
      "attr": {"p": "0.5"}, 
      "inputs": [[732, 0, 0]]
    }, 
    {
      "op": "FullyConnected", 
      "name": "t9_l0_i2h", 
      "attr": {"num_hidden": "1024"}, 
      "inputs": [[733, 0, 0], [297, 0, 0], [298, 0, 0]]
    }, 
    {
      "op": "FullyConnected", 
      "name": "t9_l0_h2h", 
      "attr": {"num_hidden": "1024"}, 
      "inputs": [[728, 0, 0], [301, 0, 0], [302, 0, 0]]
    }, 
    {
      "op": "elemwise_add", 
      "name": "_plus2594", 
      "inputs": [[734, 0, 0], [735, 0, 0]]
    }, 
    {
      "op": "SliceChannel", 
      "name": "t9_l0_slice", 
      "attr": {"num_outputs": "4"}, 
      "inputs": [[736, 0, 0]]
    }, 
    {
      "op": "Activation", 
      "name": "activation6288", 
      "attr": {"act_type": "sigmoid"}, 
      "inputs": [[737, 3, 0]]
    }, 
    {
      "op": "Activation", 
      "name": "activation6287", 
      "attr": {"act_type": "sigmoid"}, 
      "inputs": [[737, 2, 0]]
    }, 
    {
      "op": "_mul", 
      "name": "_mul3771", 
      "inputs": [[739, 0, 0], [726, 0, 0]]
    }, 
    {
      "op": "Activation", 
      "name": "activation6285", 
      "attr": {"act_type": "sigmoid"}, 
      "inputs": [[737, 0, 0]]
    }, 
    {
      "op": "Activation", 
      "name": "activation6286", 
      "attr": {"act_type": "tanh"}, 
      "inputs": [[737, 1, 0]]
    }, 
    {
      "op": "_mul", 
      "name": "_mul3772", 
      "inputs": [[741, 0, 0], [742, 0, 0]]
    }, 
    {
      "op": "elemwise_add", 
      "name": "_plus2595", 
      "inputs": [[740, 0, 0], [743, 0, 0]]
    }, 
    {
      "op": "Activation", 
      "name": "activation6289", 
      "attr": {"act_type": "tanh"}, 
      "inputs": [[744, 0, 0]]
    }, 
    {
      "op": "_mul", 
      "name": "_mul3773", 
      "inputs": [[738, 0, 0], [745, 0, 0]]
    }, 
    {
      "op": "Concat", 
      "name": "concat637", 
      "attr": {
        "dim": "1", 
        "num_args": "2"
      }, 
      "inputs": [[746, 0, 0], [453, 0, 0]]
    }, 
    {
      "op": "Flatten", 
      "name": "flatten1302", 
      "inputs": [[747, 0, 0]]
    }, 
    {
      "op": "FullyConnected", 
      "name": "t9_l1_i2h", 
      "attr": {"num_hidden": "1024"}, 
      "inputs": [[748, 0, 0], [585, 0, 0], [586, 0, 0]]
    }, 
    {
      "op": "Flatten", 
      "name": "flatten1258", 
      "inputs": [[294, 10, 0]]
    }, 
    {
      "op": "Dropout", 
      "name": "dropout1258", 
      "attr": {"p": "0.5"}, 
      "inputs": [[750, 0, 0]]
    }, 
    {
      "op": "FullyConnected", 
      "name": "t10_l0_i2h", 
      "attr": {"num_hidden": "1024"}, 
      "inputs": [[751, 0, 0], [297, 0, 0], [298, 0, 0]]
    }, 
    {
      "op": "FullyConnected", 
      "name": "t10_l0_h2h", 
      "attr": {"num_hidden": "1024"}, 
      "inputs": [[746, 0, 0], [301, 0, 0], [302, 0, 0]]
    }, 
    {
      "op": "elemwise_add", 
      "name": "_plus2596", 
      "inputs": [[752, 0, 0], [753, 0, 0]]
    }, 
    {
      "op": "SliceChannel", 
      "name": "t10_l0_slice", 
      "attr": {"num_outputs": "4"}, 
      "inputs": [[754, 0, 0]]
    }, 
    {
      "op": "Activation", 
      "name": "activation6293", 
      "attr": {"act_type": "sigmoid"}, 
      "inputs": [[755, 3, 0]]
    }, 
    {
      "op": "Activation", 
      "name": "activation6292", 
      "attr": {"act_type": "sigmoid"}, 
      "inputs": [[755, 2, 0]]
    }, 
    {
      "op": "_mul", 
      "name": "_mul3774", 
      "inputs": [[757, 0, 0], [744, 0, 0]]
    }, 
    {
      "op": "Activation", 
      "name": "activation6290", 
      "attr": {"act_type": "sigmoid"}, 
      "inputs": [[755, 0, 0]]
    }, 
    {
      "op": "Activation", 
      "name": "activation6291", 
      "attr": {"act_type": "tanh"}, 
      "inputs": [[755, 1, 0]]
    }, 
    {
      "op": "_mul", 
      "name": "_mul3775", 
      "inputs": [[759, 0, 0], [760, 0, 0]]
    }, 
    {
      "op": "elemwise_add", 
      "name": "_plus2597", 
      "inputs": [[758, 0, 0], [761, 0, 0]]
    }, 
    {
      "op": "Activation", 
      "name": "activation6294", 
      "attr": {"act_type": "tanh"}, 
      "inputs": [[762, 0, 0]]
    }, 
    {
      "op": "_mul", 
      "name": "_mul3776", 
      "inputs": [[756, 0, 0], [763, 0, 0]]
    }, 
    {
      "op": "Concat", 
      "name": "concat638", 
      "attr": {
        "dim": "1", 
        "num_args": "2"
      }, 
      "inputs": [[764, 0, 0], [441, 0, 0]]
    }, 
    {
      "op": "Flatten", 
      "name": "flatten1301", 
      "inputs": [[765, 0, 0]]
    }, 
    {
      "op": "FullyConnected", 
      "name": "t10_l1_i2h", 
      "attr": {"num_hidden": "1024"}, 
      "inputs": [[766, 0, 0], [585, 0, 0], [586, 0, 0]]
    }, 
    {
      "op": "Flatten", 
      "name": "flatten1259", 
      "inputs": [[294, 11, 0]]
    }, 
    {
      "op": "Dropout", 
      "name": "dropout1259", 
      "attr": {"p": "0.5"}, 
      "inputs": [[768, 0, 0]]
    }, 
    {
      "op": "FullyConnected", 
      "name": "t11_l0_i2h", 
      "attr": {"num_hidden": "1024"}, 
      "inputs": [[769, 0, 0], [297, 0, 0], [298, 0, 0]]
    }, 
    {
      "op": "FullyConnected", 
      "name": "t11_l0_h2h", 
      "attr": {"num_hidden": "1024"}, 
      "inputs": [[764, 0, 0], [301, 0, 0], [302, 0, 0]]
    }, 
    {
      "op": "elemwise_add", 
      "name": "_plus2598", 
      "inputs": [[770, 0, 0], [771, 0, 0]]
    }, 
    {
      "op": "SliceChannel", 
      "name": "t11_l0_slice", 
      "attr": {"num_outputs": "4"}, 
      "inputs": [[772, 0, 0]]
    }, 
    {
      "op": "Activation", 
      "name": "activation6298", 
      "attr": {"act_type": "sigmoid"}, 
      "inputs": [[773, 3, 0]]
    }, 
    {
      "op": "Activation", 
      "name": "activation6297", 
      "attr": {"act_type": "sigmoid"}, 
      "inputs": [[773, 2, 0]]
    }, 
    {
      "op": "_mul", 
      "name": "_mul3777", 
      "inputs": [[775, 0, 0], [762, 0, 0]]
    }, 
    {
      "op": "Activation", 
      "name": "activation6295", 
      "attr": {"act_type": "sigmoid"}, 
      "inputs": [[773, 0, 0]]
    }, 
    {
      "op": "Activation", 
      "name": "activation6296", 
      "attr": {"act_type": "tanh"}, 
      "inputs": [[773, 1, 0]]
    }, 
    {
      "op": "_mul", 
      "name": "_mul3778", 
      "inputs": [[777, 0, 0], [778, 0, 0]]
    }, 
    {
      "op": "elemwise_add", 
      "name": "_plus2599", 
      "inputs": [[776, 0, 0], [779, 0, 0]]
    }, 
    {
      "op": "Activation", 
      "name": "activation6299", 
      "attr": {"act_type": "tanh"}, 
      "inputs": [[780, 0, 0]]
    }, 
    {
      "op": "_mul", 
      "name": "_mul3779", 
      "inputs": [[774, 0, 0], [781, 0, 0]]
    }, 
    {
      "op": "Concat", 
      "name": "concat639", 
      "attr": {
        "dim": "1", 
        "num_args": "2"
      }, 
      "inputs": [[782, 0, 0], [429, 0, 0]]
    }, 
    {
      "op": "Flatten", 
      "name": "flatten1300", 
      "inputs": [[783, 0, 0]]
    }, 
    {
      "op": "FullyConnected", 
      "name": "t11_l1_i2h", 
      "attr": {"num_hidden": "1024"}, 
      "inputs": [[784, 0, 0], [585, 0, 0], [586, 0, 0]]
    }, 
    {
      "op": "Flatten", 
      "name": "flatten1260", 
      "inputs": [[294, 12, 0]]
    }, 
    {
      "op": "Dropout", 
      "name": "dropout1260", 
      "attr": {"p": "0.5"}, 
      "inputs": [[786, 0, 0]]
    }, 
    {
      "op": "FullyConnected", 
      "name": "t12_l0_i2h", 
      "attr": {"num_hidden": "1024"}, 
      "inputs": [[787, 0, 0], [297, 0, 0], [298, 0, 0]]
    }, 
    {
      "op": "FullyConnected", 
      "name": "t12_l0_h2h", 
      "attr": {"num_hidden": "1024"}, 
      "inputs": [[782, 0, 0], [301, 0, 0], [302, 0, 0]]
    }, 
    {
      "op": "elemwise_add", 
      "name": "_plus2600", 
      "inputs": [[788, 0, 0], [789, 0, 0]]
    }, 
    {
      "op": "SliceChannel", 
      "name": "t12_l0_slice", 
      "attr": {"num_outputs": "4"}, 
      "inputs": [[790, 0, 0]]
    }, 
    {
      "op": "Activation", 
      "name": "activation6303", 
      "attr": {"act_type": "sigmoid"}, 
      "inputs": [[791, 3, 0]]
    }, 
    {
      "op": "Activation", 
      "name": "activation6302", 
      "attr": {"act_type": "sigmoid"}, 
      "inputs": [[791, 2, 0]]
    }, 
    {
      "op": "_mul", 
      "name": "_mul3780", 
      "inputs": [[793, 0, 0], [780, 0, 0]]
    }, 
    {
      "op": "Activation", 
      "name": "activation6300", 
      "attr": {"act_type": "sigmoid"}, 
      "inputs": [[791, 0, 0]]
    }, 
    {
      "op": "Activation", 
      "name": "activation6301", 
      "attr": {"act_type": "tanh"}, 
      "inputs": [[791, 1, 0]]
    }, 
    {
      "op": "_mul", 
      "name": "_mul3781", 
      "inputs": [[795, 0, 0], [796, 0, 0]]
    }, 
    {
      "op": "elemwise_add", 
      "name": "_plus2601", 
      "inputs": [[794, 0, 0], [797, 0, 0]]
    }, 
    {
      "op": "Activation", 
      "name": "activation6304", 
      "attr": {"act_type": "tanh"}, 
      "inputs": [[798, 0, 0]]
    }, 
    {
      "op": "_mul", 
      "name": "_mul3782", 
      "inputs": [[792, 0, 0], [799, 0, 0]]
    }, 
    {
      "op": "Concat", 
      "name": "concat640", 
      "attr": {
        "dim": "1", 
        "num_args": "2"
      }, 
      "inputs": [[800, 0, 0], [417, 0, 0]]
    }, 
    {
      "op": "Flatten", 
      "name": "flatten1299", 
      "inputs": [[801, 0, 0]]
    }, 
    {
      "op": "FullyConnected", 
      "name": "t12_l1_i2h", 
      "attr": {"num_hidden": "1024"}, 
      "inputs": [[802, 0, 0], [585, 0, 0], [586, 0, 0]]
    }, 
    {
      "op": "Flatten", 
      "name": "flatten1261", 
      "inputs": [[294, 13, 0]]
    }, 
    {
      "op": "Dropout", 
      "name": "dropout1261", 
      "attr": {"p": "0.5"}, 
      "inputs": [[804, 0, 0]]
    }, 
    {
      "op": "FullyConnected", 
      "name": "t13_l0_i2h", 
      "attr": {"num_hidden": "1024"}, 
      "inputs": [[805, 0, 0], [297, 0, 0], [298, 0, 0]]
    }, 
    {
      "op": "FullyConnected", 
      "name": "t13_l0_h2h", 
      "attr": {"num_hidden": "1024"}, 
      "inputs": [[800, 0, 0], [301, 0, 0], [302, 0, 0]]
    }, 
    {
      "op": "elemwise_add", 
      "name": "_plus2602", 
      "inputs": [[806, 0, 0], [807, 0, 0]]
    }, 
    {
      "op": "SliceChannel", 
      "name": "t13_l0_slice", 
      "attr": {"num_outputs": "4"}, 
      "inputs": [[808, 0, 0]]
    }, 
    {
      "op": "Activation", 
      "name": "activation6308", 
      "attr": {"act_type": "sigmoid"}, 
      "inputs": [[809, 3, 0]]
    }, 
    {
      "op": "Activation", 
      "name": "activation6307", 
      "attr": {"act_type": "sigmoid"}, 
      "inputs": [[809, 2, 0]]
    }, 
    {
      "op": "_mul", 
      "name": "_mul3783", 
      "inputs": [[811, 0, 0], [798, 0, 0]]
    }, 
    {
      "op": "Activation", 
      "name": "activation6305", 
      "attr": {"act_type": "sigmoid"}, 
      "inputs": [[809, 0, 0]]
    }, 
    {
      "op": "Activation", 
      "name": "activation6306", 
      "attr": {"act_type": "tanh"}, 
      "inputs": [[809, 1, 0]]
    }, 
    {
      "op": "_mul", 
      "name": "_mul3784", 
      "inputs": [[813, 0, 0], [814, 0, 0]]
    }, 
    {
      "op": "elemwise_add", 
      "name": "_plus2603", 
      "inputs": [[812, 0, 0], [815, 0, 0]]
    }, 
    {
      "op": "Activation", 
      "name": "activation6309", 
      "attr": {"act_type": "tanh"}, 
      "inputs": [[816, 0, 0]]
    }, 
    {
      "op": "_mul", 
      "name": "_mul3785", 
      "inputs": [[810, 0, 0], [817, 0, 0]]
    }, 
    {
      "op": "Concat", 
      "name": "concat641", 
      "attr": {
        "dim": "1", 
        "num_args": "2"
      }, 
      "inputs": [[818, 0, 0], [405, 0, 0]]
    }, 
    {
      "op": "Flatten", 
      "name": "flatten1298", 
      "inputs": [[819, 0, 0]]
    }, 
    {
      "op": "FullyConnected", 
      "name": "t13_l1_i2h", 
      "attr": {"num_hidden": "1024"}, 
      "inputs": [[820, 0, 0], [585, 0, 0], [586, 0, 0]]
    }, 
    {
      "op": "Flatten", 
      "name": "flatten1262", 
      "inputs": [[294, 14, 0]]
    }, 
    {
      "op": "Dropout", 
      "name": "dropout1262", 
      "attr": {"p": "0.5"}, 
      "inputs": [[822, 0, 0]]
    }, 
    {
      "op": "FullyConnected", 
      "name": "t14_l0_i2h", 
      "attr": {"num_hidden": "1024"}, 
      "inputs": [[823, 0, 0], [297, 0, 0], [298, 0, 0]]
    }, 
    {
      "op": "FullyConnected", 
      "name": "t14_l0_h2h", 
      "attr": {"num_hidden": "1024"}, 
      "inputs": [[818, 0, 0], [301, 0, 0], [302, 0, 0]]
    }, 
    {
      "op": "elemwise_add", 
      "name": "_plus2604", 
      "inputs": [[824, 0, 0], [825, 0, 0]]
    }, 
    {
      "op": "SliceChannel", 
      "name": "t14_l0_slice", 
      "attr": {"num_outputs": "4"}, 
      "inputs": [[826, 0, 0]]
    }, 
    {
      "op": "Activation", 
      "name": "activation6313", 
      "attr": {"act_type": "sigmoid"}, 
      "inputs": [[827, 3, 0]]
    }, 
    {
      "op": "Activation", 
      "name": "activation6312", 
      "attr": {"act_type": "sigmoid"}, 
      "inputs": [[827, 2, 0]]
    }, 
    {
      "op": "_mul", 
      "name": "_mul3786", 
      "inputs": [[829, 0, 0], [816, 0, 0]]
    }, 
    {
      "op": "Activation", 
      "name": "activation6310", 
      "attr": {"act_type": "sigmoid"}, 
      "inputs": [[827, 0, 0]]
    }, 
    {
      "op": "Activation", 
      "name": "activation6311", 
      "attr": {"act_type": "tanh"}, 
      "inputs": [[827, 1, 0]]
    }, 
    {
      "op": "_mul", 
      "name": "_mul3787", 
      "inputs": [[831, 0, 0], [832, 0, 0]]
    }, 
    {
      "op": "elemwise_add", 
      "name": "_plus2605", 
      "inputs": [[830, 0, 0], [833, 0, 0]]
    }, 
    {
      "op": "Activation", 
      "name": "activation6314", 
      "attr": {"act_type": "tanh"}, 
      "inputs": [[834, 0, 0]]
    }, 
    {
      "op": "_mul", 
      "name": "_mul3788", 
      "inputs": [[828, 0, 0], [835, 0, 0]]
    }, 
    {
      "op": "Concat", 
      "name": "concat642", 
      "attr": {
        "dim": "1", 
        "num_args": "2"
      }, 
      "inputs": [[836, 0, 0], [393, 0, 0]]
    }, 
    {
      "op": "Flatten", 
      "name": "flatten1297", 
      "inputs": [[837, 0, 0]]
    }, 
    {
      "op": "FullyConnected", 
      "name": "t14_l1_i2h", 
      "attr": {"num_hidden": "1024"}, 
      "inputs": [[838, 0, 0], [585, 0, 0], [586, 0, 0]]
    }, 
    {
      "op": "Flatten", 
      "name": "flatten1263", 
      "inputs": [[294, 15, 0]]
    }, 
    {
      "op": "Dropout", 
      "name": "dropout1263", 
      "attr": {"p": "0.5"}, 
      "inputs": [[840, 0, 0]]
    }, 
    {
      "op": "FullyConnected", 
      "name": "t15_l0_i2h", 
      "attr": {"num_hidden": "1024"}, 
      "inputs": [[841, 0, 0], [297, 0, 0], [298, 0, 0]]
    }, 
    {
      "op": "FullyConnected", 
      "name": "t15_l0_h2h", 
      "attr": {"num_hidden": "1024"}, 
      "inputs": [[836, 0, 0], [301, 0, 0], [302, 0, 0]]
    }, 
    {
      "op": "elemwise_add", 
      "name": "_plus2606", 
      "inputs": [[842, 0, 0], [843, 0, 0]]
    }, 
    {
      "op": "SliceChannel", 
      "name": "t15_l0_slice", 
      "attr": {"num_outputs": "4"}, 
      "inputs": [[844, 0, 0]]
    }, 
    {
      "op": "Activation", 
      "name": "activation6318", 
      "attr": {"act_type": "sigmoid"}, 
      "inputs": [[845, 3, 0]]
    }, 
    {
      "op": "Activation", 
      "name": "activation6317", 
      "attr": {"act_type": "sigmoid"}, 
      "inputs": [[845, 2, 0]]
    }, 
    {
      "op": "_mul", 
      "name": "_mul3789", 
      "inputs": [[847, 0, 0], [834, 0, 0]]
    }, 
    {
      "op": "Activation", 
      "name": "activation6315", 
      "attr": {"act_type": "sigmoid"}, 
      "inputs": [[845, 0, 0]]
    }, 
    {
      "op": "Activation", 
      "name": "activation6316", 
      "attr": {"act_type": "tanh"}, 
      "inputs": [[845, 1, 0]]
    }, 
    {
      "op": "_mul", 
      "name": "_mul3790", 
      "inputs": [[849, 0, 0], [850, 0, 0]]
    }, 
    {
      "op": "elemwise_add", 
      "name": "_plus2607", 
      "inputs": [[848, 0, 0], [851, 0, 0]]
    }, 
    {
      "op": "Activation", 
      "name": "activation6319", 
      "attr": {"act_type": "tanh"}, 
      "inputs": [[852, 0, 0]]
    }, 
    {
      "op": "_mul", 
      "name": "_mul3791", 
      "inputs": [[846, 0, 0], [853, 0, 0]]
    }, 
    {
      "op": "Concat", 
      "name": "concat643", 
      "attr": {
        "dim": "1", 
        "num_args": "2"
      }, 
      "inputs": [[854, 0, 0], [381, 0, 0]]
    }, 
    {
      "op": "Flatten", 
      "name": "flatten1296", 
      "inputs": [[855, 0, 0]]
    }, 
    {
      "op": "FullyConnected", 
      "name": "t15_l1_i2h", 
      "attr": {"num_hidden": "1024"}, 
      "inputs": [[856, 0, 0], [585, 0, 0], [586, 0, 0]]
    }, 
    {
      "op": "null", 
      "name": "b_l1_init_h", 
      "inputs": []
    }, 
    {
      "op": "null", 
      "name": "b_l1_h2h_weight", 
      "inputs": []
    }, 
    {
      "op": "null", 
      "name": "b_l1_h2h_bias", 
      "inputs": []
    }, 
    {
      "op": "FullyConnected", 
      "name": "t15_l1_h2h", 
      "attr": {"num_hidden": "1024"}, 
      "inputs": [[858, 0, 0], [859, 0, 0], [860, 0, 0]]
    }, 
    {
      "op": "elemwise_add", 
      "name": "_plus2672", 
      "inputs": [[857, 0, 0], [861, 0, 0]]
    }, 
    {
      "op": "SliceChannel", 
      "name": "t15_l1_slice", 
      "attr": {"num_outputs": "4"}, 
      "inputs": [[862, 0, 0]]
    }, 
    {
      "op": "Activation", 
      "name": "activation6483", 
      "attr": {"act_type": "sigmoid"}, 
      "inputs": [[863, 3, 0]]
    }, 
    {
      "op": "Activation", 
      "name": "activation6482", 
      "attr": {"act_type": "sigmoid"}, 
      "inputs": [[863, 2, 0]]
    }, 
    {
      "op": "null", 
      "name": "b_l1_init_c", 
      "inputs": []
    }, 
    {
      "op": "_mul", 
      "name": "_mul3888", 
      "inputs": [[865, 0, 0], [866, 0, 0]]
    }, 
    {
      "op": "Activation", 
      "name": "activation6480", 
      "attr": {"act_type": "sigmoid"}, 
      "inputs": [[863, 0, 0]]
    }, 
    {
      "op": "Activation", 
      "name": "activation6481", 
      "attr": {"act_type": "tanh"}, 
      "inputs": [[863, 1, 0]]
    }, 
    {
      "op": "_mul", 
      "name": "_mul3889", 
      "inputs": [[868, 0, 0], [869, 0, 0]]
    }, 
    {
      "op": "elemwise_add", 
      "name": "_plus2673", 
      "inputs": [[867, 0, 0], [870, 0, 0]]
    }, 
    {
      "op": "Activation", 
      "name": "activation6484", 
      "attr": {"act_type": "tanh"}, 
      "inputs": [[871, 0, 0]]
    }, 
    {
      "op": "_mul", 
      "name": "_mul3890", 
      "inputs": [[864, 0, 0], [872, 0, 0]]
    }, 
    {
      "op": "FullyConnected", 
      "name": "t14_l1_h2h", 
      "attr": {"num_hidden": "1024"}, 
      "inputs": [[873, 0, 0], [859, 0, 0], [860, 0, 0]]
    }, 
    {
      "op": "elemwise_add", 
      "name": "_plus2674", 
      "inputs": [[839, 0, 0], [874, 0, 0]]
    }, 
    {
      "op": "SliceChannel", 
      "name": "t14_l1_slice", 
      "attr": {"num_outputs": "4"}, 
      "inputs": [[875, 0, 0]]
    }, 
    {
      "op": "Activation", 
      "name": "activation6488", 
      "attr": {"act_type": "sigmoid"}, 
      "inputs": [[876, 3, 0]]
    }, 
    {
      "op": "Activation", 
      "name": "activation6487", 
      "attr": {"act_type": "sigmoid"}, 
      "inputs": [[876, 2, 0]]
    }, 
    {
      "op": "_mul", 
      "name": "_mul3891", 
      "inputs": [[878, 0, 0], [871, 0, 0]]
    }, 
    {
      "op": "Activation", 
      "name": "activation6485", 
      "attr": {"act_type": "sigmoid"}, 
      "inputs": [[876, 0, 0]]
    }, 
    {
      "op": "Activation", 
      "name": "activation6486", 
      "attr": {"act_type": "tanh"}, 
      "inputs": [[876, 1, 0]]
    }, 
    {
      "op": "_mul", 
      "name": "_mul3892", 
      "inputs": [[880, 0, 0], [881, 0, 0]]
    }, 
    {
      "op": "elemwise_add", 
      "name": "_plus2675", 
      "inputs": [[879, 0, 0], [882, 0, 0]]
    }, 
    {
      "op": "Activation", 
      "name": "activation6489", 
      "attr": {"act_type": "tanh"}, 
      "inputs": [[883, 0, 0]]
    }, 
    {
      "op": "_mul", 
      "name": "_mul3893", 
      "inputs": [[877, 0, 0], [884, 0, 0]]
    }, 
    {
      "op": "FullyConnected", 
      "name": "t13_l1_h2h", 
      "attr": {"num_hidden": "1024"}, 
      "inputs": [[885, 0, 0], [859, 0, 0], [860, 0, 0]]
    }, 
    {
      "op": "elemwise_add", 
      "name": "_plus2676", 
      "inputs": [[821, 0, 0], [886, 0, 0]]
    }, 
    {
      "op": "SliceChannel", 
      "name": "t13_l1_slice", 
      "attr": {"num_outputs": "4"}, 
      "inputs": [[887, 0, 0]]
    }, 
    {
      "op": "Activation", 
      "name": "activation6493", 
      "attr": {"act_type": "sigmoid"}, 
      "inputs": [[888, 3, 0]]
    }, 
    {
      "op": "Activation", 
      "name": "activation6492", 
      "attr": {"act_type": "sigmoid"}, 
      "inputs": [[888, 2, 0]]
    }, 
    {
      "op": "_mul", 
      "name": "_mul3894", 
      "inputs": [[890, 0, 0], [883, 0, 0]]
    }, 
    {
      "op": "Activation", 
      "name": "activation6490", 
      "attr": {"act_type": "sigmoid"}, 
      "inputs": [[888, 0, 0]]
    }, 
    {
      "op": "Activation", 
      "name": "activation6491", 
      "attr": {"act_type": "tanh"}, 
      "inputs": [[888, 1, 0]]
    }, 
    {
      "op": "_mul", 
      "name": "_mul3895", 
      "inputs": [[892, 0, 0], [893, 0, 0]]
    }, 
    {
      "op": "elemwise_add", 
      "name": "_plus2677", 
      "inputs": [[891, 0, 0], [894, 0, 0]]
    }, 
    {
      "op": "Activation", 
      "name": "activation6494", 
      "attr": {"act_type": "tanh"}, 
      "inputs": [[895, 0, 0]]
    }, 
    {
      "op": "_mul", 
      "name": "_mul3896", 
      "inputs": [[889, 0, 0], [896, 0, 0]]
    }, 
    {
      "op": "FullyConnected", 
      "name": "t12_l1_h2h", 
      "attr": {"num_hidden": "1024"}, 
      "inputs": [[897, 0, 0], [859, 0, 0], [860, 0, 0]]
    }, 
    {
      "op": "elemwise_add", 
      "name": "_plus2678", 
      "inputs": [[803, 0, 0], [898, 0, 0]]
    }, 
    {
      "op": "SliceChannel", 
      "name": "t12_l1_slice", 
      "attr": {"num_outputs": "4"}, 
      "inputs": [[899, 0, 0]]
    }, 
    {
      "op": "Activation", 
      "name": "activation6498", 
      "attr": {"act_type": "sigmoid"}, 
      "inputs": [[900, 3, 0]]
    }, 
    {
      "op": "Activation", 
      "name": "activation6497", 
      "attr": {"act_type": "sigmoid"}, 
      "inputs": [[900, 2, 0]]
    }, 
    {
      "op": "_mul", 
      "name": "_mul3897", 
      "inputs": [[902, 0, 0], [895, 0, 0]]
    }, 
    {
      "op": "Activation", 
      "name": "activation6495", 
      "attr": {"act_type": "sigmoid"}, 
      "inputs": [[900, 0, 0]]
    }, 
    {
      "op": "Activation", 
      "name": "activation6496", 
      "attr": {"act_type": "tanh"}, 
      "inputs": [[900, 1, 0]]
    }, 
    {
      "op": "_mul", 
      "name": "_mul3898", 
      "inputs": [[904, 0, 0], [905, 0, 0]]
    }, 
    {
      "op": "elemwise_add", 
      "name": "_plus2679", 
      "inputs": [[903, 0, 0], [906, 0, 0]]
    }, 
    {
      "op": "Activation", 
      "name": "activation6499", 
      "attr": {"act_type": "tanh"}, 
      "inputs": [[907, 0, 0]]
    }, 
    {
      "op": "_mul", 
      "name": "_mul3899", 
      "inputs": [[901, 0, 0], [908, 0, 0]]
    }, 
    {
      "op": "FullyConnected", 
      "name": "t11_l1_h2h", 
      "attr": {"num_hidden": "1024"}, 
      "inputs": [[909, 0, 0], [859, 0, 0], [860, 0, 0]]
    }, 
    {
      "op": "elemwise_add", 
      "name": "_plus2680", 
      "inputs": [[785, 0, 0], [910, 0, 0]]
    }, 
    {
      "op": "SliceChannel", 
      "name": "t11_l1_slice", 
      "attr": {"num_outputs": "4"}, 
      "inputs": [[911, 0, 0]]
    }, 
    {
      "op": "Activation", 
      "name": "activation6503", 
      "attr": {"act_type": "sigmoid"}, 
      "inputs": [[912, 3, 0]]
    }, 
    {
      "op": "Activation", 
      "name": "activation6502", 
      "attr": {"act_type": "sigmoid"}, 
      "inputs": [[912, 2, 0]]
    }, 
    {
      "op": "_mul", 
      "name": "_mul3900", 
      "inputs": [[914, 0, 0], [907, 0, 0]]
    }, 
    {
      "op": "Activation", 
      "name": "activation6500", 
      "attr": {"act_type": "sigmoid"}, 
      "inputs": [[912, 0, 0]]
    }, 
    {
      "op": "Activation", 
      "name": "activation6501", 
      "attr": {"act_type": "tanh"}, 
      "inputs": [[912, 1, 0]]
    }, 
    {
      "op": "_mul", 
      "name": "_mul3901", 
      "inputs": [[916, 0, 0], [917, 0, 0]]
    }, 
    {
      "op": "elemwise_add", 
      "name": "_plus2681", 
      "inputs": [[915, 0, 0], [918, 0, 0]]
    }, 
    {
…
      "op": "Activation", 
      "name": "activation6409", 
      "attr": {"act_type": "tanh"}, 
      "inputs": [[1067, 0, 0]]
    }, 
    {
      "op": "_mul", 
      "name": "_mul3845", 
      "inputs": [[1061, 0, 0], [1068, 0, 0]]
    }, 
    {
      "op": "Dropout", 
      "name": "dropout1281", 
      "attr": {"p": "0.5"}, 
      "inputs": [[1069, 0, 0]]
    }, 
    {
      "op": "Dropout", 
      "name": "dropout1310", 
      "attr": {"p": "0.5"}, 
      "inputs": [[1041, 0, 0]]
    }, 
    {
      "op": "Concat", 
      "name": "concat645", 
      "attr": {
        "dim": "1", 
        "num_args": "2"
      }, 
      "inputs": [[1070, 0, 0], [1071, 0, 0]]
    }, 
    {
      "op": "Flatten", 
      "name": "flatten1282", 
      "inputs": [[621, 0, 0]]
    }, 
    {
      "op": "FullyConnected", 
      "name": "t2_l1_i2h", 
      "attr": {"num_hidden": "1024"}, 
      "inputs": [[1073, 0, 0], [564, 0, 0], [565, 0, 0]]
    }, 
    {
      "op": "FullyConnected", 
      "name": "t2_l1_h2h", 
      "attr": {"num_hidden": "1024"}, 
      "inputs": [[1069, 0, 0], [568, 0, 0], [569, 0, 0]]
    }, 
    {
      "op": "elemwise_add", 
      "name": "_plus2644", 
      "inputs": [[1074, 0, 0], [1075, 0, 0]]
    }, 
    {
      "op": "SliceChannel", 
      "name": "t2_l1_slice", 
      "attr": {"num_outputs": "4"}, 
      "inputs": [[1076, 0, 0]]
    }, 
    {
      "op": "Activation", 
      "name": "activation6413", 
      "attr": {"act_type": "sigmoid"}, 
      "inputs": [[1077, 3, 0]]
    }, 
    {
      "op": "Activation", 
      "name": "activation6412", 
      "attr": {"act_type": "sigmoid"}, 
      "inputs": [[1077, 2, 0]]
    }, 
    {
      "op": "_mul", 
      "name": "_mul3846", 
      "inputs": [[1079, 0, 0], [1067, 0, 0]]
    }, 
    {
      "op": "Activation", 
      "name": "activation6410", 
      "attr": {"act_type": "sigmoid"}, 
      "inputs": [[1077, 0, 0]]
    }, 
    {
      "op": "Activation", 
      "name": "activation6411", 
      "attr": {"act_type": "tanh"}, 
      "inputs": [[1077, 1, 0]]
    }, 
    {
      "op": "_mul", 
      "name": "_mul3847", 
      "inputs": [[1081, 0, 0], [1082, 0, 0]]
    }, 
    {
      "op": "elemwise_add", 
      "name": "_plus2645", 
      "inputs": [[1080, 0, 0], [1083, 0, 0]]
    }, 
    {
      "op": "Activation", 
      "name": "activation6414", 
      "attr": {"act_type": "tanh"}, 
      "inputs": [[1084, 0, 0]]
    }, 
    {
      "op": "_mul", 
      "name": "_mul3848", 
      "inputs": [[1078, 0, 0], [1085, 0, 0]]
    }, 
    {
      "op": "Dropout", 
      "name": "dropout1282", 
      "attr": {"p": "0.5"}, 
      "inputs": [[1086, 0, 0]]
    }, 
    {
      "op": "Dropout", 
      "name": "dropout1309", 
      "attr": {"p": "0.5"}, 
      "inputs": [[1029, 0, 0]]
    }, 
    {
      "op": "Concat", 
      "name": "concat646", 
      "attr": {
        "dim": "1", 
        "num_args": "2"
      }, 
      "inputs": [[1087, 0, 0], [1088, 0, 0]]
    }, 
    {
      "op": "Flatten", 
      "name": "flatten1283", 
      "inputs": [[639, 0, 0]]
    }, 
    {
      "op": "FullyConnected", 
      "name": "t3_l1_i2h", 
      "attr": {"num_hidden": "1024"}, 
      "inputs": [[1090, 0, 0], [564, 0, 0], [565, 0, 0]]
    }, 
    {
      "op": "FullyConnected", 
      "name": "t3_l1_h2h", 
      "attr": {"num_hidden": "1024"}, 
      "inputs": [[1086, 0, 0], [568, 0, 0], [569, 0, 0]]
    }, 
    {
      "op": "elemwise_add", 
      "name": "_plus2646", 
      "inputs": [[1091, 0, 0], [1092, 0, 0]]
    }, 
    {
      "op": "SliceChannel", 
      "name": "t3_l1_slice", 
      "attr": {"num_outputs": "4"}, 
      "inputs": [[1093, 0, 0]]
    }, 
    {
      "op": "Activation", 
      "name": "activation6418", 
      "attr": {"act_type": "sigmoid"}, 
      "inputs": [[1094, 3, 0]]
    }, 
    {
      "op": "Activation", 
      "name": "activation6417", 
      "attr": {"act_type": "sigmoid"}, 
      "inputs": [[1094, 2, 0]]
    }, 
    {
      "op": "_mul", 
      "name": "_mul3849", 
      "inputs": [[1096, 0, 0], [1084, 0, 0]]
    }, 
    {
      "op": "Activation", 
      "name": "activation6415", 
      "attr": {"act_type": "sigmoid"}, 
      "inputs": [[1094, 0, 0]]
    }, 
    {
      "op": "Activation", 
      "name": "activation6416", 
      "attr": {"act_type": "tanh"}, 
      "inputs": [[1094, 1, 0]]
    }, 
    {
      "op": "_mul", 
      "name": "_mul3850", 
      "inputs": [[1098, 0, 0], [1099, 0, 0]]
    }, 
    {
      "op": "elemwise_add", 
      "name": "_plus2647", 
      "inputs": [[1097, 0, 0], [1100, 0, 0]]
    }, 
    {
      "op": "Activation", 
      "name": "activation6419", 
      "attr": {"act_type": "tanh"}, 
      "inputs": [[1101, 0, 0]]
    }, 
    {
      "op": "_mul", 
      "name": "_mul3851", 
      "inputs": [[1095, 0, 0], [1102, 0, 0]]
    }, 
    {
      "op": "Dropout", 
      "name": "dropout1283", 
      "attr": {"p": "0.5"}, 
      "inputs": [[1103, 0, 0]]
    }, 
    {
      "op": "Dropout", 
      "name": "dropout1308", 
      "attr": {"p": "0.5"}, 
      "inputs": [[1017, 0, 0]]
    }, 
    {
      "op": "Concat", 
      "name": "concat647", 
      "attr": {
        "dim": "1", 
        "num_args": "2"
      }, 
      "inputs": [[1104, 0, 0], [1105, 0, 0]]
    }, 
    {
      "op": "Flatten", 
      "name": "flatten1284", 
      "inputs": [[657, 0, 0]]
    }, 
    {
      "op": "FullyConnected", 
      "name": "t4_l1_i2h", 
      "attr": {"num_hidden": "1024"}, 
      "inputs": [[1107, 0, 0], [564, 0, 0], [565, 0, 0]]
    }, 
    {
      "op": "FullyConnected", 
      "name": "t4_l1_h2h", 
      "attr": {"num_hidden": "1024"}, 
      "inputs": [[1103, 0, 0], [568, 0, 0], [569, 0, 0]]
    }, 
    {
      "op": "elemwise_add", 
      "name": "_plus2648", 
      "inputs": [[1108, 0, 0], [1109, 0, 0]]
    }, 
    {
      "op": "SliceChannel", 
      "name": "t4_l1_slice", 
      "attr": {"num_outputs": "4"}, 
      "inputs": [[1110, 0, 0]]
    }, 
    {
      "op": "Activation", 
      "name": "activation6423", 
      "attr": {"act_type": "sigmoid"}, 
      "inputs": [[1111, 3, 0]]
    }, 
    {
      "op": "Activation", 
      "name": "activation6422", 
      "attr": {"act_type": "sigmoid"}, 
      "inputs": [[1111, 2, 0]]
    }, 
    {
      "op": "_mul", 
      "name": "_mul3852", 
      "inputs": [[1113, 0, 0], [1101, 0, 0]]
    }, 
    {
      "op": "Activation", 
      "name": "activation6420", 
      "attr": {"act_type": "sigmoid"}, 
      "inputs": [[1111, 0, 0]]
    }, 
    {
      "op": "Activation", 
      "name": "activation6421", 
      "attr": {"act_type": "tanh"}, 
      "inputs": [[1111, 1, 0]]
    }, 
    {
      "op": "_mul", 
      "name": "_mul3853", 
      "inputs": [[1115, 0, 0], [1116, 0, 0]]
    }, 
    {
      "op": "elemwise_add", 
      "name": "_plus2649", 
      "inputs": [[1114, 0, 0], [1117, 0, 0]]
    }, 
    {
      "op": "Activation", 
      "name": "activation6424", 
      "attr": {"act_type": "tanh"}, 
      "inputs": [[1118, 0, 0]]
    }, 
    {
      "op": "_mul", 
      "name": "_mul3854", 
      "inputs": [[1112, 0, 0], [1119, 0, 0]]
    }, 
    {
      "op": "Dropout", 
      "name": "dropout1284", 
      "attr": {"p": "0.5"}, 
      "inputs": [[1120, 0, 0]]
    }, 
    {
      "op": "Dropout", 
      "name": "dropout1307", 
      "attr": {"p": "0.5"}, 
      "inputs": [[1005, 0, 0]]
    }, 
    {
      "op": "Concat", 
      "name": "concat648", 
      "attr": {
        "dim": "1", 
        "num_args": "2"
      }, 
      "inputs": [[1121, 0, 0], [1122, 0, 0]]
    }, 
    {
      "op": "Flatten", 
      "name": "flatten1285", 
      "inputs": [[675, 0, 0]]
    }, 
    {
      "op": "FullyConnected", 
      "name": "t5_l1_i2h", 
      "attr": {"num_hidden": "1024"}, 
      "inputs": [[1124, 0, 0], [564, 0, 0], [565, 0, 0]]
    }, 
    {
      "op": "FullyConnected", 
      "name": "t5_l1_h2h", 
      "attr": {"num_hidden": "1024"}, 
      "inputs": [[1120, 0, 0], [568, 0, 0], [569, 0, 0]]
    }, 
    {
      "op": "elemwise_add", 
      "name": "_plus2650", 
      "inputs": [[1125, 0, 0], [1126, 0, 0]]
    }, 
    {
      "op": "SliceChannel", 
      "name": "t5_l1_slice", 
      "attr": {"num_outputs": "4"}, 
      "inputs": [[1127, 0, 0]]
    }, 
    {
      "op": "Activation", 
      "name": "activation6428", 
      "attr": {"act_type": "sigmoid"}, 
      "inputs": [[1128, 3, 0]]
    }, 
    {
      "op": "Activation", 
      "name": "activation6427", 
      "attr": {"act_type": "sigmoid"}, 
      "inputs": [[1128, 2, 0]]
    }, 
    {
      "op": "_mul", 
      "name": "_mul3855", 
      "inputs": [[1130, 0, 0], [1118, 0, 0]]
    }, 
    {
      "op": "Activation", 
      "name": "activation6425", 
      "attr": {"act_type": "sigmoid"}, 
      "inputs": [[1128, 0, 0]]
    }, 
    {
      "op": "Activation", 
      "name": "activation6426", 
      "attr": {"act_type": "tanh"}, 
      "inputs": [[1128, 1, 0]]
    }, 
    {
      "op": "_mul", 
      "name": "_mul3856", 
      "inputs": [[1132, 0, 0], [1133, 0, 0]]
    }, 
    {
      "op": "elemwise_add", 
      "name": "_plus2651", 
      "inputs": [[1131, 0, 0], [1134, 0, 0]]
    }, 
    {
      "op": "Activation", 
      "name": "activation6429", 
      "attr": {"act_type": "tanh"}, 
      "inputs": [[1135, 0, 0]]
    }, 
    {
      "op": "_mul", 
      "name": "_mul3857", 
      "inputs": [[1129, 0, 0], [1136, 0, 0]]
    }, 
    {
      "op": "Dropout", 
      "name": "dropout1285", 
      "attr": {"p": "0.5"}, 
      "inputs": [[1137, 0, 0]]
    }, 
    {
      "op": "Dropout", 
      "name": "dropout1306", 
      "attr": {"p": "0.5"}, 
      "inputs": [[993, 0, 0]]
    }, 
    {
      "op": "Concat", 
      "name": "concat649", 
      "attr": {
        "dim": "1", 
        "num_args": "2"
      }, 
      "inputs": [[1138, 0, 0], [1139, 0, 0]]
    }, 
    {
      "op": "Flatten", 
      "name": "flatten1286", 
      "inputs": [[693, 0, 0]]
    }, 
    {
      "op": "FullyConnected", 
      "name": "t6_l1_i2h", 
      "attr": {"num_hidden": "1024"}, 
      "inputs": [[1141, 0, 0], [564, 0, 0], [565, 0, 0]]
    }, 
    {
      "op": "FullyConnected", 
      "name": "t6_l1_h2h", 
      "attr": {"num_hidden": "1024"}, 
      "inputs": [[1137, 0, 0], [568, 0, 0], [569, 0, 0]]
    }, 
    {
      "op": "elemwise_add", 
      "name": "_plus2652", 
      "inputs": [[1142, 0, 0], [1143, 0, 0]]
    }, 
    {
      "op": "SliceChannel", 
      "name": "t6_l1_slice", 
      "attr": {"num_outputs": "4"}, 
      "inputs": [[1144, 0, 0]]
    }, 
    {
      "op": "Activation", 
      "name": "activation6433", 
      "attr": {"act_type": "sigmoid"}, 
      "inputs": [[1145, 3, 0]]
    }, 
    {
      "op": "Activation", 
      "name": "activation6432", 
      "attr": {"act_type": "sigmoid"}, 
      "inputs": [[1145, 2, 0]]
    }, 
    {
      "op": "_mul", 
      "name": "_mul3858", 
      "inputs": [[1147, 0, 0], [1135, 0, 0]]
    }, 
    {
      "op": "Activation", 
      "name": "activation6430", 
      "attr": {"act_type": "sigmoid"}, 
      "inputs": [[1145, 0, 0]]
    }, 
    {
      "op": "Activation", 
      "name": "activation6431", 
      "attr": {"act_type": "tanh"}, 
      "inputs": [[1145, 1, 0]]
    }, 
    {
      "op": "_mul", 
      "name": "_mul3859", 
      "inputs": [[1149, 0, 0], [1150, 0, 0]]
    }, 
    {
      "op": "elemwise_add", 
      "name": "_plus2653", 
      "inputs": [[1148, 0, 0], [1151, 0, 0]]
    }, 
    {
      "op": "Activation", 
      "name": "activation6434", 
      "attr": {"act_type": "tanh"}, 
      "inputs": [[1152, 0, 0]]
    }, 
    {
      "op": "_mul", 
      "name": "_mul3860", 
      "inputs": [[1146, 0, 0], [1153, 0, 0]]
    }, 
    {
      "op": "Dropout", 
      "name": "dropout1286", 
      "attr": {"p": "0.5"}, 
      "inputs": [[1154, 0, 0]]
    }, 
    {
      "op": "Dropout", 
      "name": "dropout1305", 
      "attr": {"p": "0.5"}, 
      "inputs": [[981, 0, 0]]
    }, 
    {
      "op": "Concat", 
      "name": "concat650", 
      "attr": {
        "dim": "1", 
        "num_args": "2"
      }, 
      "inputs": [[1155, 0, 0], [1156, 0, 0]]
    }, 
    {
      "op": "Flatten", 
      "name": "flatten1287", 
      "inputs": [[711, 0, 0]]
    }, 
    {
      "op": "FullyConnected", 
      "name": "t7_l1_i2h", 
      "attr": {"num_hidden": "1024"}, 
      "inputs": [[1158, 0, 0], [564, 0, 0], [565, 0, 0]]
    }, 
    {
      "op": "FullyConnected", 
      "name": "t7_l1_h2h", 
      "attr": {"num_hidden": "1024"}, 
      "inputs": [[1154, 0, 0], [568, 0, 0], [569, 0, 0]]
    }, 
    {
      "op": "elemwise_add", 
      "name": "_plus2654", 
      "inputs": [[1159, 0, 0], [1160, 0, 0]]
    }, 
    {
      "op": "SliceChannel", 
      "name": "t7_l1_slice", 
      "attr": {"num_outputs": "4"}, 
      "inputs": [[1161, 0, 0]]
    }, 
    {
      "op": "Activation", 
      "name": "activation6438", 
      "attr": {"act_type": "sigmoid"}, 
      "inputs": [[1162, 3, 0]]
    }, 
    {
      "op": "Activation", 
      "name": "activation6437", 
      "attr": {"act_type": "sigmoid"}, 
      "inputs": [[1162, 2, 0]]
    }, 
    {
      "op": "_mul", 
      "name": "_mul3861", 
      "inputs": [[1164, 0, 0], [1152, 0, 0]]
    }, 
    {
      "op": "Activation", 
      "name": "activation6435", 
      "attr": {"act_type": "sigmoid"}, 
      "inputs": [[1162, 0, 0]]
    }, 
    {
      "op": "Activation", 
      "name": "activation6436", 
      "attr": {"act_type": "tanh"}, 
      "inputs": [[1162, 1, 0]]
    }, 
    {
      "op": "_mul", 
      "name": "_mul3862", 
      "inputs": [[1166, 0, 0], [1167, 0, 0]]
    }, 
    {
      "op": "elemwise_add", 
      "name": "_plus2655", 
      "inputs": [[1165, 0, 0], [1168, 0, 0]]
    }, 
    {
      "op": "Activation", 
      "name": "activation6439", 
      "attr": {"act_type": "tanh"}, 
      "inputs": [[1169, 0, 0]]
    }, 
    {
      "op": "_mul", 
      "name": "_mul3863", 
      "inputs": [[1163, 0, 0], [1170, 0, 0]]
    }, 
    {
      "op": "Dropout", 
      "name": "dropout1287", 
      "attr": {"p": "0.5"}, 
      "inputs": [[1171, 0, 0]]
    }, 
    {
      "op": "Dropout", 
      "name": "dropout1304", 
      "attr": {"p": "0.5"}, 
      "inputs": [[969, 0, 0]]
    }, 
    {
      "op": "Concat", 
      "name": "concat651", 
      "attr": {
        "dim": "1", 
        "num_args": "2"
      }, 
      "inputs": [[1172, 0, 0], [1173, 0, 0]]
    }, 
    {
      "op": "Flatten", 
      "name": "flatten1288", 
      "inputs": [[729, 0, 0]]
    }, 
    {
      "op": "FullyConnected", 
      "name": "t8_l1_i2h", 
      "attr": {"num_hidden": "1024"}, 
      "inputs": [[1175, 0, 0], [564, 0, 0], [565, 0, 0]]
    }, 
    {
      "op": "FullyConnected", 
      "name": "t8_l1_h2h", 
      "attr": {"num_hidden": "1024"}, 
      "inputs": [[1171, 0, 0], [568, 0, 0], [569, 0, 0]]
    }, 
    {
      "op": "elemwise_add", 
      "name": "_plus2656", 
      "inputs": [[1176, 0, 0], [1177, 0, 0]]
    }, 
    {
      "op": "SliceChannel", 
      "name": "t8_l1_slice", 
      "attr": {"num_outputs": "4"}, 
      "inputs": [[1178, 0, 0]]
    }, 
    {
      "op": "Activation", 
      "name": "activation6443", 
      "attr": {"act_type": "sigmoid"}, 
      "inputs": [[1179, 3, 0]]
    }, 
    {
      "op": "Activation", 
      "name": "activation6442", 
      "attr": {"act_type": "sigmoid"}, 
      "inputs": [[1179, 2, 0]]
    }, 
    {
      "op": "_mul", 
      "name": "_mul3864", 
      "inputs": [[1181, 0, 0], [1169, 0, 0]]
    }, 
    {
      "op": "Activation", 
      "name": "activation6440", 
      "attr": {"act_type": "sigmoid"}, 
      "inputs": [[1179, 0, 0]]
    }, 
    {
      "op": "Activation", 
      "name": "activation6441", 
      "attr": {"act_type": "tanh"}, 
      "inputs": [[1179, 1, 0]]
    }, 
    {
      "op": "_mul", 
      "name": "_mul3865", 
      "inputs": [[1183, 0, 0], [1184, 0, 0]]
    }, 
    {
      "op": "elemwise_add", 
      "name": "_plus2657", 
      "inputs": [[1182, 0, 0], [1185, 0, 0]]
    }, 
    {
      "op": "Activation", 
      "name": "activation6444", 
      "attr": {"act_type": "tanh"}, 
      "inputs": [[1186, 0, 0]]
    }, 
    {
      "op": "_mul", 
      "name": "_mul3866", 
      "inputs": [[1180, 0, 0], [1187, 0, 0]]
    }, 
    {
      "op": "Dropout", 
      "name": "dropout1288", 
      "attr": {"p": "0.5"}, 
      "inputs": [[1188, 0, 0]]
    }, 
    {
      "op": "Dropout", 
      "name": "dropout1303", 
      "attr": {"p": "0.5"}, 
      "inputs": [[957, 0, 0]]
    }, 
    {
      "op": "Concat", 
      "name": "concat652", 
      "attr": {
        "dim": "1", 
        "num_args": "2"
      }, 
      "inputs": [[1189, 0, 0], [1190, 0, 0]]
    }, 
    {
      "op": "Flatten", 
      "name": "flatten1289", 
      "inputs": [[747, 0, 0]]
    }, 
    {
      "op": "FullyConnected", 
      "name": "t9_l1_i2h", 
      "attr": {"num_hidden": "1024"}, 
      "inputs": [[1192, 0, 0], [564, 0, 0], [565, 0, 0]]
    }, 
    {
      "op": "FullyConnected", 
      "name": "t9_l1_h2h", 
      "attr": {"num_hidden": "1024"}, 
      "inputs": [[1188, 0, 0], [568, 0, 0], [569, 0, 0]]
    }, 
    {
      "op": "elemwise_add", 
      "name": "_plus2658", 
      "inputs": [[1193, 0, 0], [1194, 0, 0]]
    }, 
    {
      "op": "SliceChannel", 
      "name": "t9_l1_slice", 
      "attr": {"num_outputs": "4"}, 
      "inputs": [[1195, 0, 0]]
    }, 
    {
      "op": "Activation", 
      "name": "activation6448", 
      "attr": {"act_type": "sigmoid"}, 
      "inputs": [[1196, 3, 0]]
    }, 
    {
      "op": "Activation", 
      "name": "activation6447", 
      "attr": {"act_type": "sigmoid"}, 
      "inputs": [[1196, 2, 0]]
    }, 
    {
      "op": "_mul", 
      "name": "_mul3867", 
      "inputs": [[1198, 0, 0], [1186, 0, 0]]
    }, 
    {
      "op": "Activation", 
      "name": "activation6445", 
      "attr": {"act_type": "sigmoid"}, 
      "inputs": [[1196, 0, 0]]
    }, 
    {
      "op": "Activation", 
      "name": "activation6446", 
      "attr": {"act_type": "tanh"}, 
      "inputs": [[1196, 1, 0]]
    }, 
    {
      "op": "_mul", 
      "name": "_mul3868", 
      "inputs": [[1200, 0, 0], [1201, 0, 0]]
    }, 
    {
      "op": "elemwise_add", 
      "name": "_plus2659", 
      "inputs": [[1199, 0, 0], [1202, 0, 0]]
    }, 
    {
      "op": "Activation", 
      "name": "activation6449", 
      "attr": {"act_type": "tanh"}, 
      "inputs": [[1203, 0, 0]]
    }, 
    {
      "op": "_mul", 
      "name": "_mul3869", 
      "inputs": [[1197, 0, 0], [1204, 0, 0]]
    }, 
    {
      "op": "Dropout", 
      "name": "dropout1289", 
      "attr": {"p": "0.5"}, 
      "inputs": [[1205, 0, 0]]
    }, 
    {
      "op": "Dropout", 
      "name": "dropout1302", 
      "attr": {"p": "0.5"}, 
      "inputs": [[945, 0, 0]]
    }, 
    {
      "op": "Concat", 
      "name": "concat653", 
      "attr": {
        "dim": "1", 
        "num_args": "2"
      }, 
      "inputs": [[1206, 0, 0], [1207, 0, 0]]
    }, 
    {
      "op": "Flatten", 
      "name": "flatten1290", 
      "inputs": [[765, 0, 0]]
    }, 
    {
      "op": "FullyConnected", 
      "name": "t10_l1_i2h", 
      "attr": {"num_hidden": "1024"}, 
      "inputs": [[1209, 0, 0], [564, 0, 0], [565, 0, 0]]
    }, 
    {
      "op": "FullyConnected", 
      "name": "t10_l1_h2h", 
      "attr": {"num_hidden": "1024"}, 
      "inputs": [[1205, 0, 0], [568, 0, 0], [569, 0, 0]]
    }, 
    {
      "op": "elemwise_add", 
      "name": "_plus2660", 
      "inputs": [[1210, 0, 0], [1211, 0, 0]]
    }, 
    {
      "op": "SliceChannel", 
      "name": "t10_l1_slice", 
      "attr": {"num_outputs": "4"}, 
      "inputs": [[1212, 0, 0]]
    }, 
    {
      "op": "Activation", 
      "name": "activation6453", 
      "attr": {"act_type": "sigmoid"}, 
      "inputs": [[1213, 3, 0]]
    }, 
    {
      "op": "Activation", 
      "name": "activation6452", 
      "attr": {"act_type": "sigmoid"}, 
      "inputs": [[1213, 2, 0]]
    }, 
    {
      "op": "_mul", 
      "name": "_mul3870", 
      "inputs": [[1215, 0, 0], [1203, 0, 0]]
    }, 
    {
      "op": "Activation", 
      "name": "activation6450", 
      "attr": {"act_type": "sigmoid"}, 
      "inputs": [[1213, 0, 0]]
    }, 
    {
      "op": "Activation", 
      "name": "activation6451", 
      "attr": {"act_type": "tanh"}, 
      "inputs": [[1213, 1, 0]]
    }, 
    {
      "op": "_mul", 
      "name": "_mul3871", 
      "inputs": [[1217, 0, 0], [1218, 0, 0]]
    }, 
    {
      "op": "elemwise_add", 
      "name": "_plus2661", 
      "inputs": [[1216, 0, 0], [1219, 0, 0]]
    }, 
    {
      "op": "Activation", 
      "name": "activation6454", 
      "attr": {"act_type": "tanh"}, 
      "inputs": [[1220, 0, 0]]
    }, 
    {
      "op": "_mul", 
      "name": "_mul3872", 
      "inputs": [[1214, 0, 0], [1221, 0, 0]]
    }, 
    {
      "op": "Dropout", 
      "name": "dropout1290", 
      "attr": {"p": "0.5"}, 
      "inputs": [[1222, 0, 0]]
    }, 
    {
      "op": "Dropout", 
      "name": "dropout1301", 
      "attr": {"p": "0.5"}, 
      "inputs": [[933, 0, 0]]
    }, 
    {
      "op": "Concat", 
      "name": "concat654", 
      "attr": {
        "dim": "1", 
        "num_args": "2"
      }, 
      "inputs": [[1223, 0, 0], [1224, 0, 0]]
    }, 
    {
      "op": "Flatten", 
      "name": "flatten1291", 
      "inputs": [[783, 0, 0]]
    }, 
    {
      "op": "FullyConnected", 
      "name": "t11_l1_i2h", 
      "attr": {"num_hidden": "1024"}, 
      "inputs": [[1226, 0, 0], [564, 0, 0], [565, 0, 0]]
    }, 
    {
      "op": "FullyConnected", 
      "name": "t11_l1_h2h", 
      "attr": {"num_hidden": "1024"}, 
      "inputs": [[1222, 0, 0], [568, 0, 0], [569, 0, 0]]
    }, 
    {
      "op": "elemwise_add", 
      "name": "_plus2662", 
      "inputs": [[1227, 0, 0], [1228, 0, 0]]
    }, 
    {
      "op": "SliceChannel", 
      "name": "t11_l1_slice", 
      "attr": {"num_outputs": "4"}, 
      "inputs": [[1229, 0, 0]]
    }, 
    {
      "op": "Activation", 
      "name": "activation6458", 
      "attr": {"act_type": "sigmoid"}, 
      "inputs": [[1230, 3, 0]]
    }, 
    {
      "op": "Activation", 
      "name": "activation6457", 
      "attr": {"act_type": "sigmoid"}, 
      "inputs": [[1230, 2, 0]]
    }, 
    {
      "op": "_mul", 
      "name": "_mul3873", 
      "inputs": [[1232, 0, 0], [1220, 0, 0]]
    }, 
    {
      "op": "Activation", 
      "name": "activation6455", 
      "attr": {"act_type": "sigmoid"}, 
      "inputs": [[1230, 0, 0]]
    }, 
    {
      "op": "Activation", 
      "name": "activation6456", 
      "attr": {"act_type": "tanh"}, 
      "inputs": [[1230, 1, 0]]
    }, 
    {
      "op": "_mul", 
      "name": "_mul3874", 
      "inputs": [[1234, 0, 0], [1235, 0, 0]]
    }, 
    {
      "op": "elemwise_add", 
      "name": "_plus2663", 
      "inputs": [[1233, 0, 0], [1236, 0, 0]]
    }, 
    {
      "op": "Activation", 
      "name": "activation6459", 
      "attr": {"act_type": "tanh"}, 
      "inputs": [[1237, 0, 0]]
    }, 
    {
      "op": "_mul", 
      "name": "_mul3875", 
      "inputs": [[1231, 0, 0], [1238, 0, 0]]
    }, 
    {
      "op": "Dropout", 
      "name": "dropout1291", 
      "attr": {"p": "0.5"}, 
      "inputs": [[1239, 0, 0]]
    }, 
    {
      "op": "Dropout", 
      "name": "dropout1300", 
      "attr": {"p": "0.5"}, 
      "inputs": [[921, 0, 0]]
    }, 
    {
      "op": "Concat", 
      "name": "concat655", 
      "attr": {
        "dim": "1", 
        "num_args": "2"
      }, 
      "inputs": [[1240, 0, 0], [1241, 0, 0]]
    }, 
    {
      "op": "Flatten", 
      "name": "flatten1292", 
      "inputs": [[801, 0, 0]]
    }, 
    {
      "op": "FullyConnected", 
      "name": "t12_l1_i2h", 
      "attr": {"num_hidden": "1024"}, 
      "inputs": [[1243, 0, 0], [564, 0, 0], [565, 0, 0]]
    }, 
    {
      "op": "FullyConnected", 
      "name": "t12_l1_h2h", 
      "attr": {"num_hidden": "1024"}, 
      "inputs": [[1239, 0, 0], [568, 0, 0], [569, 0, 0]]
    }, 
    {
      "op": "elemwise_add", 
      "name": "_plus2664", 
      "inputs": [[1244, 0, 0], [1245, 0, 0]]
    }, 
    {
      "op": "SliceChannel", 
      "name": "t12_l1_slice", 
      "attr": {"num_outputs": "4"}, 
      "inputs": [[1246, 0, 0]]
    }, 
    {
      "op": "Activation", 
      "name": "activation6463", 
      "attr": {"act_type": "sigmoid"}, 
      "inputs": [[1247, 3, 0]]
    }, 
    {
      "op": "Activation", 
      "name": "activation6462", 
      "attr": {"act_type": "sigmoid"}, 
      "inputs": [[1247, 2, 0]]
    }, 
    {
      "op": "_mul", 
      "name": "_mul3876", 
      "inputs": [[1249, 0, 0], [1237, 0, 0]]
    }, 
    {
      "op": "Activation", 
      "name": "activation6460", 
      "attr": {"act_type": "sigmoid"}, 
      "inputs": [[1247, 0, 0]]
    }, 
    {
      "op": "Activation", 
      "name": "activation6461", 
      "attr": {"act_type": "tanh"}, 
      "inputs": [[1247, 1, 0]]
    }, 
    {
      "op": "_mul", 
      "name": "_mul3877", 
      "inputs": [[1251, 0, 0], [1252, 0, 0]]
    }, 
    {
      "op": "elemwise_add", 
      "name": "_plus2665", 
      "inputs": [[1250, 0, 0], [1253, 0, 0]]
    }, 
    {
      "op": "Activation", 
      "name": "activation6464", 
      "attr": {"act_type": "tanh"}, 
      "inputs": [[1254, 0, 0]]
    }, 
    {
      "op": "_mul", 
      "name": "_mul3878", 
      "inputs": [[1248, 0, 0], [1255, 0, 0]]
    }, 
    {
      "op": "Dropout", 
      "name": "dropout1292", 
      "attr": {"p": "0.5"}, 
      "inputs": [[1256, 0, 0]]
    }, 
    {
      "op": "Dropout", 
      "name": "dropout1299", 
      "attr": {"p": "0.5"}, 
      "inputs": [[909, 0, 0]]
    }, 
    {
      "op": "Concat", 
      "name": "concat656", 
      "attr": {
        "dim": "1", 
        "num_args": "2"
      }, 
      "inputs": [[1257, 0, 0], [1258, 0, 0]]
    }, 
    {
      "op": "Flatten", 
      "name": "flatten1293", 
      "inputs": [[819, 0, 0]]
    }, 
    {
      "op": "FullyConnected", 
      "name": "t13_l1_i2h", 
      "attr": {"num_hidden": "1024"}, 
      "inputs": [[1260, 0, 0], [564, 0, 0], [565, 0, 0]]
    }, 
    {
      "op": "FullyConnected", 
      "name": "t13_l1_h2h", 
      "attr": {"num_hidden": "1024"}, 
      "inputs": [[1256, 0, 0], [568, 0, 0], [569, 0, 0]]
    }, 
    {
      "op": "elemwise_add", 
      "name": "_plus2666", 
      "inputs": [[1261, 0, 0], [1262, 0, 0]]
    }, 
    {
      "op": "SliceChannel", 
      "name": "t13_l1_slice", 
      "attr": {"num_outputs": "4"}, 
      "inputs": [[1263, 0, 0]]
    }, 
    {
      "op": "Activation", 
      "name": "activation6468", 
      "attr": {"act_type": "sigmoid"}, 
      "inputs": [[1264, 3, 0]]
    }, 
    {
      "op": "Activation", 
      "name": "activation6467", 
      "attr": {"act_type": "sigmoid"}, 
      "inputs": [[1264, 2, 0]]
    }, 
    {
      "op": "_mul", 
      "name": "_mul3879", 
      "inputs": [[1266, 0, 0], [1254, 0, 0]]
    }, 
    {
      "op": "Activation", 
      "name": "activation6465", 
      "attr": {"act_type": "sigmoid"}, 
      "inputs": [[1264, 0, 0]]
    }, 
    {
      "op": "Activation", 
      "name": "activation6466", 
      "attr": {"act_type": "tanh"}, 
      "inputs": [[1264, 1, 0]]
    }, 
    {
      "op": "_mul", 
      "name": "_mul3880", 
      "inputs": [[1268, 0, 0], [1269, 0, 0]]
    }, 
    {
      "op": "elemwise_add", 
      "name": "_plus2667", 
      "inputs": [[1267, 0, 0], [1270, 0, 0]]
    }, 
    {
      "op": "Activation", 
      "name": "activation6469", 
      "attr": {"act_type": "tanh"}, 
      "inputs": [[1271, 0, 0]]
    }, 
    {
      "op": "_mul", 
      "name": "_mul3881", 
      "inputs": [[1265, 0, 0], [1272, 0, 0]]
    }, 
    {
      "op": "Dropout", 
      "name": "dropout1293", 
      "attr": {"p": "0.5"}, 
      "inputs": [[1273, 0, 0]]
    }, 
    {
      "op": "Dropout", 
      "name": "dropout1298", 
      "attr": {"p": "0.5"}, 
      "inputs": [[897, 0, 0]]
    }, 
    {
      "op": "Concat", 
      "name": "concat657", 
      "attr": {
        "dim": "1", 
        "num_args": "2"
      }, 
      "inputs": [[1274, 0, 0], [1275, 0, 0]]
    }, 
    {
      "op": "Flatten", 
      "name": "flatten1294", 
      "inputs": [[837, 0, 0]]
    }, 
    {
      "op": "FullyConnected", 
      "name": "t14_l1_i2h", 
      "attr": {"num_hidden": "1024"}, 
      "inputs": [[1277, 0, 0], [564, 0, 0], [565, 0, 0]]
    }, 
    {
      "op": "FullyConnected", 
      "name": "t14_l1_h2h", 
      "attr": {"num_hidden": "1024"}, 
      "inputs": [[1273, 0, 0], [568, 0, 0], [569, 0, 0]]
    }, 
    {
      "op": "elemwise_add", 
      "name": "_plus2668", 
      "inputs": [[1278, 0, 0], [1279, 0, 0]]
    }, 
    {
      "op": "SliceChannel", 
      "name": "t14_l1_slice", 
      "attr": {"num_outputs": "4"}, 
      "inputs": [[1280, 0, 0]]
    }, 
    {
      "op": "Activation", 
      "name": "activation6473", 
      "attr": {"act_type": "sigmoid"}, 
      "inputs": [[1281, 3, 0]]
    }, 
    {
      "op": "Activation", 
      "name": "activation6472", 
      "attr": {"act_type": "sigmoid"}, 
      "inputs": [[1281, 2, 0]]
    }, 
    {
      "op": "_mul", 
      "name": "_mul3882", 
      "inputs": [[1283, 0, 0], [1271, 0, 0]]
    }, 
    {
      "op": "Activation", 
      "name": "activation6470", 
      "attr": {"act_type": "sigmoid"}, 
      "inputs": [[1281, 0, 0]]
    }, 
    {
      "op": "Activation", 
      "name": "activation6471", 
      "attr": {"act_type": "tanh"}, 
      "inputs": [[1281, 1, 0]]
    }, 
    {
      "op": "_mul", 
      "name": "_mul3883", 
      "inputs": [[1285, 0, 0], [1286, 0, 0]]
    }, 
    {
      "op": "elemwise_add", 
      "name": "_plus2669", 
      "inputs": [[1284, 0, 0], [1287, 0, 0]]
    }, 
    {
      "op": "Activation", 
      "name": "activation6474", 
      "attr": {"act_type": "tanh"}, 
      "inputs": [[1288, 0, 0]]
    }, 
    {
      "op": "_mul", 
      "name": "_mul3884", 
      "inputs": [[1282, 0, 0], [1289, 0, 0]]
    }, 
    {
      "op": "Dropout", 
      "name": "dropout1294", 
      "attr": {"p": "0.5"}, 
      "inputs": [[1290, 0, 0]]
    }, 
    {
      "op": "Dropout", 
      "name": "dropout1297", 
      "attr": {"p": "0.5"}, 
      "inputs": [[885, 0, 0]]
    }, 
    {
      "op": "Concat", 
      "name": "concat658", 
      "attr": {
        "dim": "1", 
        "num_args": "2"
      }, 
      "inputs": [[1291, 0, 0], [1292, 0, 0]]
    }, 
    {
      "op": "Flatten", 
      "name": "flatten1295", 
      "inputs": [[855, 0, 0]]
    }, 
    {
      "op": "FullyConnected", 
      "name": "t15_l1_i2h", 
      "attr": {"num_hidden": "1024"}, 
      "inputs": [[1294, 0, 0], [564, 0, 0], [565, 0, 0]]
    }, 
    {
      "op": "FullyConnected", 
      "name": "t15_l1_h2h", 
      "attr": {"num_hidden": "1024"}, 
      "inputs": [[1290, 0, 0], [568, 0, 0], [569, 0, 0]]
    }, 
    {
      "op": "elemwise_add", 
      "name": "_plus2670", 
      "inputs": [[1295, 0, 0], [1296, 0, 0]]
    }, 
    {
      "op": "SliceChannel", 
      "name": "t15_l1_slice", 
      "attr": {"num_outputs": "4"}, 
      "inputs": [[1297, 0, 0]]
    }, 
    {
      "op": "Activation", 
      "name": "activation6478", 
      "attr": {"act_type": "sigmoid"}, 
      "inputs": [[1298, 3, 0]]
    }, 
    {
      "op": "Activation", 
      "name": "activation6477", 
      "attr": {"act_type": "sigmoid"}, 
      "inputs": [[1298, 2, 0]]
    }, 
    {
      "op": "_mul", 
      "name": "_mul3885", 
      "inputs": [[1300, 0, 0], [1288, 0, 0]]
    }, 
    {
      "op": "Activation", 
      "name": "activation6475", 
      "attr": {"act_type": "sigmoid"}, 
      "inputs": [[1298, 0, 0]]
    }, 
    {
      "op": "Activation", 
      "name": "activation6476", 
      "attr": {"act_type": "tanh"}, 
      "inputs": [[1298, 1, 0]]
    }, 
    {
      "op": "_mul", 
      "name": "_mul3886", 
      "inputs": [[1302, 0, 0], [1303, 0, 0]]
    }, 
    {
      "op": "elemwise_add", 
      "name": "_plus2671", 
      "inputs": [[1301, 0, 0], [1304, 0, 0]]
    }, 
    {
      "op": "Activation", 
      "name": "activation6479", 
      "attr": {"act_type": "tanh"}, 
      "inputs": [[1305, 0, 0]]
    }, 
    {
      "op": "_mul", 
      "name": "_mul3887", 
      "inputs": [[1299, 0, 0], [1306, 0, 0]]
    }, 
    {
      "op": "Dropout", 
      "name": "dropout1295", 
      "attr": {"p": "0.5"}, 
      "inputs": [[1307, 0, 0]]
    }, 
    {
      "op": "Dropout", 
      "name": "dropout1296", 
      "attr": {"p": "0.5"}, 
      "inputs": [[873, 0, 0]]
    }, 
    {
      "op": "Concat", 
      "name": "concat659", 
      "attr": {
        "dim": "1", 
        "num_args": "2"
      }, 
      "inputs": [[1308, 0, 0], [1309, 0, 0]]
    }, 
    {
      "op": "Concat", 
      "name": "concat660", 
      "attr": {
        "dim": "0", 
        "num_args": "16"
      }, 
      "inputs": [
        [1055, 0, 0], 
        [1072, 0, 0], 
        [1089, 0, 0], 
        [1106, 0, 0], 
        [1123, 0, 0], 
        [1140, 0, 0], 
        [1157, 0, 0], 
        [1174, 0, 0], 
        [1191, 0, 0], 
        [1208, 0, 0], 
        [1225, 0, 0], 
        [1242, 0, 0], 
        [1259, 0, 0], 
        [1276, 0, 0], 
        [1293, 0, 0], 
        [1310, 0, 0]
      ]
    }, 
    {
      "op": "null", 
      "name": "fc1_weight", 
      "attr": {"num_hidden": "37"}, 
      "inputs": []
    }, 
    {
      "op": "null", 
      "name": "fc1_bias", 
      "attr": {"num_hidden": "37"}, 
      "inputs": []
    }, 
    {
      "op": "FullyConnected", 
      "name": "fc1", 
      "attr": {"num_hidden": "37"}, 
      "inputs": [[1311, 0, 0], [1312, 0, 0], [1313, 0, 0]]
    }, 
    {
      "op": "SoftmaxActivation", 
      "name": "softmaxactivation4", 
      "inputs": [[1314, 0, 0]]
    }, 
    {
      "op": "BlockGrad", 
      "name": "blockgrad4", 
      "inputs": [[1315, 0, 0]]
    }, 
    {
      "op": "Reshape", 
      "name": "reshape4", 
      "attr": {"shape": "(-4, 16, -1, 0)"}, 
      "inputs": [[1314, 0, 0]]
    }, 
    {
      "op": "null", 
      "name": "label", 
      "inputs": []
    }, 
    {
      "op": "_contrib_CTCLoss", 
      "name": "_contrib_ctc_loss4", 
      "inputs": [[1317, 0, 0], [1318, 0, 0]]
    }, 
    {
      "op": "MakeLoss", 
      "name": "makeloss4", 
      "inputs": [[1319, 0, 0]]
    }
  ], 
  "arg_nodes": [
    0, 
    1, 
    2, 
    3, 
    4, 
    6, 
    8, 
    9, 
    10, 
    11, 
    14, 
    16, 
    17, 
    18, 
    19, 
    22, 
    24, 
    27, 
    28, 
    29, 
    30, 
    33, 
    35, 
    36, 
    37, 
    38, 
    41, 
    44, 
    45, 
    46, 
    47, 
    50, 
    52, 
    53, 
    54, 
    55, 
    58, 
    61, 
    62, 
    63, 
    64, 
    67, 
    69, 
    70, 
    71, 
    72, 
    75, 
    77, 
    80, 
    81, 
    82, 
    83, 
    86, 
    88, 
    89, 
    90, 
    91, 
    94, 
    97, 
    98, 
    99, 
    100, 
    103, 
    105, 
    106, 
    107, 
    108, 
    111, 
    114, 
    115, 
    116, 
    117, 
    120, 
    122, 
    123, 
    124, 
    125, 
    128, 
    131, 
    132, 
    133, 
    134, 
    137, 
    139, 
    140, 
    141, 
    142, 
    145, 
    147, 
    150, 
    151, 
    152, 
    153, 
    156, 
    158, 
    159, 
    160, 
    161, 
    164, 
    167, 
    168, 
    169, 
    170, 
    173, 
    175, 
    176, 
    177, 
    178, 
    181, 
    184, 
    185, 
    186, 
    187, 
    190, 
    192, 
    193, 
    194, 
    195, 
    198, 
    201, 
    202, 
    203, 
    204, 
    207, 
    209, 
    210, 
    211, 
    212, 
    215, 
    218, 
    219, 
    220, 
    221, 
    224, 
    226, 
    227, 
    228, 
    229, 
    232, 
    235, 
    236, 
    237, 
    238, 
    241, 
    243, 
    244, 
    245, 
    246, 
    249, 
    251, 
    254, 
    255, 
    256, 
    257, 
    260, 
    262, 
    263, 
    264, 
    265, 
    268, 
    271, 
    272, 
    273, 
    274, 
    277, 
    279, 
    280, 
    281, 
    282, 
    285, 
    288, 
    289, 
    290, 
    291, 
    297, 
    298, 
    300, 
    301, 
    302, 
    308, 
    318, 
    319, 
    366, 
    367, 
    368, 
    374, 
    564, 
    565, 
    567, 
    568, 
    569, 
    575, 
    585, 
    586, 
    858, 
    859, 
    860, 
    866, 
    1312, 
    1313, 
    1318
  ], 
  "node_row_ptr": [
    0, 
    1, 
    2, 
    3, 
    4, 
    5, 
    8, 
    9, 
    10, 
    11, 
    12, 
    13, 
    14, 
    17, 
    18, 
    19, 
    20, 
    21, 
    22, 
    23, 
    24, 
    27, 
    28, 
    29, 
    30, 
    31, 
    32, 
    33, 
    34, 
    35, 
    36, 
    37, 
    40, 
    41, 
    42, 
    43, 
    44, 
    45, 
    46, 
    47, 
    50, 
    51, 
    52, 
    53, 
    54, 
    55, 
    56, 
    57, 
    58, 
    61, 
    62, 
    63, 
    64, 
    65, 
    66, 
    67, 
    68, 
    71, 
    72, 
    73, 
    74, 
    75, 
    76, 
    77, 
    78, 
    79, 
    82, 
    83, 
    84, 
    85, 
    86, 
    87, 
    88, 
    89, 
    92, 
    93, 
    94, 
    95, 
    96, 
    97, 
    98, 
    99, 
    100, 
    101, 
    102, 
    105, 
    106, 
    107, 
    108, 
    109, 
    110, 
    111, 
    112, 
    115, 
    116, 
    117, 
    118, 
    119, 
    120, 
    121, 
    122, 
    123, 
    126, 
    127, 
    128, 
    129, 
    130, 
    131, 
    132, 
    133, 
    136, 
    137, 
    138, 
    139, 
    140, 
    141, 
    142, 
    143, 
    144, 
    147, 
    148, 
    149, 
    150, 
    151, 
    152, 
    153, 
    154, 
    157, 
    158, 
    159, 
    160, 
    161, 
    162, 
    163, 
    164, 
    165, 
    168, 
    169, 
    170, 
    171, 
    172, 
    173, 
    174, 
    175, 
    178, 
    179, 
    180, 
    181, 
    182, 
    183, 
    184, 
    185, 
    186, 
    187, 
    188, 
    191, 
    192, 
    193, 
    194, 
    195, 
    196, 
    197, 
    198, 
    201, 
    202, 
    203, 
    204, 
    205, 
    206, 
    207, 
    208, 
    209, 
    212, 
    213, 
    214, 
    215, 
    216, 
    217, 
    218, 
    219, 
    222, 
    223, 
    224, 
    225, 
    226, 
    227, 
    228, 
    229, 
    230, 
    233, 
    234, 
    235, 
    236, 
    237, 
    238, 
    239, 
    240, 
    243, 
    244, 
    245, 
    246, 
    247, 
    248, 
    249, 
    250, 
    251, 
    254, 
    255, 
    256, 
    257, 
    258, 
    259, 
    260, 
    261, 
    264, 
    265, 
    266, 
    267, 
    268, 
    269, 
    270, 
    271, 
    272, 
    275, 
    276, 
    277, 
    278, 
    279, 
    280, 
    281, 
    282, 
    285, 
    286, 
    287, 
    288, 
    289, 
    290, 
    291, 
    292, 
    293, 
    296, 
    297, 
    298, 
    299, 
    300, 
    301, 
    302, 
    303, 
    306, 
    307, 
    308, 
    309, 
    310, 
    311, 
    312, 
    313, 
    314, 
    315, 
    316, 
    319, 
    320, 
    321, 
    322, 
    323, 
    324, 
    325, 
    326, 
    329, 
    330, 
    331, 
    332, 
    333, 
    334, 
    335, 
    336, 
    337, 
    340, 
    341, 
    342, 
    343, 
    344, 
    345, 
    346, 
    347, 
    350, 
    351, 
    352, 
    353, 
    354, 
    355, 
    356, 
    357, 
    358, 
    361, 
    362, 
    378, 
    379, 
    381, 
    382, 
    383, 
    384, 
    385, 
    386, 
    387, 
    388, 
    389, 
    393, 
    394, 
    395, 
    396, 
    397, 
    398, 
    399, 
    400, 
    401, 
    402, 
    403, 
    404, 
    406, 
    407, 
    408, 
    409, 
    410, 
    412, 
    413, 
    414, 
    416, 
    417, 
    418, 
    420, 
    421, 
    422, 
    424, 
    425, 
    426, 
    428, 
    429, 
    430, 
    432, 
    433, 
    434, 
    436, 
    437, 
    438, 
    440, 
    441, 
    442, 
    444, 
    445, 
    446, 
    448, 
    449, 
    450, 
    452, 
    453, 
    454, 
    456, 
    457, 
    458, 
    460, 
    461, 
    462, 
    464, 
    465, 
    466, 
    468, 
    469, 
    470, 
    471, 
    472, 
    473, 
    474, 
    478, 
    479, 
    480, 
    481, 
    482, 
    483, 
    484, 
    485, 
    486, 
    487, 
    488, 
    489, 
    490, 
    494, 
    495, 
    496, 
    497, 
    498, 
    499, 
    500, 
    501, 
    502, 
    503, 
    504, 
    505, 
    509, 
    510, 
    511, 
    512, 
    513, 
    514, 
    515, 
    516, 
    517, 
    518, 
    519, 
    520, 
    524, 
    525, 
    526, 
    527, 
    528, 
    529, 
    530, 
    531, 
    532, 
    533, 
    534, 
    535, 
    539, 
    540, 
    541, 
    542, 
    543, 
    544, 
    545, 
    546, 
    547, 
    548, 
    549, 
    550, 
    554, 
    555, 
    556, 
    557, 
    558, 
    559, 
    560, 
    561, 
    562, 
    563, 
    564, 
    565, 
    569, 
    570, 
    571, 
    572, 
    573, 
    574, 
    575, 
    576, 
    577, 
    578, 
    579, 
    580, 
    584, 
    585, 
    586, 
    587, 
    588, 
    589, 
    590, 
    591, 
    592, 
    593, 
    594, 
    595, 
    599, 
    600, 
    601, 
    602, 
    603, 
    604, 
    605, 
    606, 
    607, 
    608, 
    609, 
    610, 
    614, 
    615, 
    616, 
    617, 
    618, 
    619, 
    620, 
    621, 
    622, 
    623, 
    624, 
    625, 
    629, 
    630, 
    631, 
    632, 
    633, 
    634, 
    635, 
    636, 
    637, 
    638, 
    639, 
    640, 
    644, 
    645, 
    646, 
    647, 
    648, 
    649, 
    650, 
    651, 
    652, 
    653, 
    654, 
    655, 
    659, 
    660, 
    661, 
    662, 
    663, 
    664, 
    665, 
    666, 
    667, 
    668, 
    669, 
    670, 
    674, 
    675, 
    676, 
    677, 
    678, 
    679, 
    680, 
    681, 
    682, 
    683, 
    684, 
    685, 
    689, 
    690, 
    691, 
    692, 
    693, 
    694, 
    695, 
    696, 
    697, 
    698, 
    699, 
    700, 
    704, 
    705, 
    706, 
    707, 
    708, 
    709, 
    710, 
    711, 
    712, 
    713, 
    714, 
    715, 
    716, 
    717, 
    718, 
    719, 
    720, 
    721, 
    722, 
    723, 
    727, 
    728, 
    729, 
    730, 
    731, 
    732, 
    733, 
    734, 
    735, 
    736, 
    737, 
    739, 
    740, 
    741, 
    742, 
    743, 
    744, 
    746, 
    747, 
    748, 
    749, 
    753, 
    754, 
    755, 
    756, 
    757, 
    758, 
    759, 
    760, 
    761, 
    762, 
    763, 
    764, 
    765, 
    766, 
    768, 
    769, 
    770, 
    771, 
    775, 
    776, 
    777, 
    778, 
    779, 
    780, 
    781, 
    782, 
    783, 
    784, 
    785, 
    786, 
    787, 
    788, 
    790, 
    791, 
    792, 
    793, 
    797, 
    798, 
    799, 
    800, 
    801, 
    802, 
    803, 
    804, 
    805, 
    806, 
    807, 
    808, 
    809, 
    810, 
    812, 
    813, 
    814, 
    815, 
    819, 
    820, 
    821, 
    822, 
    823, 
    824, 
    825, 
    826, 
    827, 
    828, 
    829, 
    830, 
    831, 
    832, 
    834, 
    835, 
    836, 
    837, 
    841, 
    842, 
    843, 
    844, 
    845, 
    846, 
    847, 
    848, 
    849, 
    850, 
    851, 
    852, 
    853, 
    854, 
    856, 
    857, 
    858, 
    859, 
    863, 
    864, 
    865, 
    866, 
    867, 
    868, 
    869, 
    870, 
    871, 
    872, 
    873, 
    874, 
    875, 
    876, 
    878, 
    879, 
    880, 
    881, 
    885, 
    886, 
    887, 
    888, 
    889, 
    890, 
    891, 
    892, 
    893, 
    894, 
    895, 
    896, 
    897, 
    898, 
    900, 
    901, 
    902, 
    903, 
    907, 
    908, 
    909, 
    910, 
    911, 
    912, 
    913, 
    914, 
    915, 
    916, 
    917, 
    918, 
    919, 
    920, 
    922, 
    923, 
    924, 
    925, 
    929, 
    930, 
    931, 
    932, 
    933, 
    934, 
    935, 
    936, 
    937, 
    938, 
    939, 
    940, 
    941, 
    942, 
    944, 
    945, 
    946, 
    947, 
    951, 
    952, 
    953, 
    954, 
    955, 
    956, 
    957, 
    958, 
    959, 
    960, 
    961, 
    962, 
    963, 
    964, 
    966, 
    967, 
    968, 
    969, 
    973, 
    974, 
    975, 
    976, 
    977, 
    978, 
    979, 
    980, 
    981, 
    982, 
    983, 
    984, 
    985, 
    986, 
    988, 
    989, 
    990, 
    991, 
    995, 
    996, 
    997, 
    998, 
    999, 
    1000, 
    1001, 
    1002, 
    1003, 
    1004, 
    1005, 
    1006, 
    1007, 
    1008, 
    1010, 
    1011, 
    1012, 
    1013, 
    1017, 
    1018, 
    1019, 
    1020, 
    1021, 
    1022, 
    1023, 
    1024, 
    1025, 
    1026, 
    1027, 
    1028, 
    1029, 
    1030, 
    1032, 
    1033, 
    1034, 
    1035, 
    1039, 
    1040, 
    1041, 
    1042, 
    1043, 
    1044, 
    1045, 
    1046, 
    1047, 
    1048, 
    1049, 
    1050, 
    1051, 
    1052, 
    1054, 
    1055, 
    1056, 
    1057, 
    1061, 
    1062, 
    1063, 
    1064, 
    1065, 
    1066, 
    1067, 
    1068, 
    1069, 
    1070, 
    1071, 
    1072, 
    1073, 
    1074, 
    1075, 
    1076, 
    1077, 
    1078, 
    1082, 
    1083, 
    1084, 
    1085, 
    1086, 
    1087, 
    1088, 
    1089, 
    1090, 
    1091, 
    1092, 
    1093, 
    1094, 
    1098, 
    1099, 
    1100, 
    1101, 
    1102, 
    1103, 
    1104, 
    1105, 
    1106, 
    1107, 
    1108, 
    1109, 
    1113, 
    1114, 
    1115, 
    1116, 
    1117, 
    1118, 
    1119, 
    1120, 
    1121, 
    1122, 
    1123, 
    1124, 
    1128, 
    1129, 
    1130, 
    1131, 
    1132, 
    1133, 
    1134, 
    1135, 
    1136, 
    1137, 
    1138, 
    1139, 
    1143, 
    1144, 
    1145, 
    1146, 
    1147, 
    1148, 
    1149, 
    1150, 
    1151, 
    1152, 
    1153, 
    1154, 
    1158, 
    1159, 
    1160, 
    1161, 
    1162, 
    1163, 
    1164, 
    1165, 
    1166, 
    1167, 
    1168, 
    1169, 
    1173, 
    1174, 
    1175, 
    1176, 
    1177, 
    1178, 
    1179, 
    1180, 
    1181, 
    1182, 
    1183, 
    1184, 
    1188, 
    1189, 
    1190, 
    1191, 
    1192, 
    1193, 
    1194, 
    1195, 
    1196, 
    1197, 
    1198, 
    1199, 
    1203, 
    1204, 
    1205, 
    1206, 
    1207, 
    1208, 
    1209, 
    1210, 
    1211, 
    1212, 
    1213, 
    1214, 
    1218, 
    1219, 
    1220, 
    1221, 
    1222, 
    1223, 
    1224, 
    1225, 
    1226, 
    1227, 
    1228, 
    1229, 
    1233, 
    1234, 
    1235, 
    1236, 
    1237, 
    1238, 
    1239, 
    1240, 
    1241, 
    1242, 
    1243, 
    1244, 
    1248, 
    1249, 
    1250, 
    1251, 
    1252, 
    1253, 
    1254, 
    1255, 
    1256, 
    1257, 
    1258, 
    1259, 
    1263, 
    1264, 
    1265, 
    1266, 
    1267, 
    1268, 
    1269, 
    1270, 
    1271, 
    1272, 
    1273, 
    1274, 
    1278, 
    1279, 
    1280, 
    1281, 
    1282, 
    1283, 
    1284, 
    1285, 
    1286, 
    1287, 
    1288, 
    1289, 
    1293, 
    1294, 
    1295, 
    1296, 
    1297, 
    1298, 
    1299, 
    1300, 
    1301, 
    1302, 
    1303, 
    1304, 
    1308, 
    1309, 
    1310, 
    1311, 
    1312, 
    1313, 
    1314, 
    1315, 
    1316, 
    1317, 
    1319, 
    1320, 
    1321, 
    1322, 
    1323, 
    1324, 
    1328, 
    1329, 
    1330, 
    1331, 
    1332, 
    1333, 
    1334, 
    1335, 
    1336, 
    1337, 
    1339, 
    1341, 
    1342, 
    1343, 
    1344, 
    1345, 
    1346, 
    1350, 
    1351, 
    1352, 
    1353, 
    1354, 
    1355, 
    1356, 
    1357, 
    1358, 
    1359, 
    1361, 
    1363, 
    1364, 
    1365, 
    1366, 
    1367, 
    1368, 
    1372, 
    1373, 
    1374, 
    1375, 
    1376, 
    1377, 
    1378, 
    1379, 
    1380, 
    1381, 
    1383, 
    1385, 
    1386, 
    1387, 
    1388, 
    1389, 
    1390, 
    1394, 
    1395, 
    1396, 
    1397, 
    1398, 
    1399, 
    1400, 
    1401, 
    1402, 
    1403, 
    1405, 
    1407, 
    1408, 
    1409, 
    1410, 
    1411, 
    1412, 
    1416, 
    1417, 
    1418, 
    1419, 
    1420, 
    1421, 
    1422, 
    1423, 
    1424, 
    1425, 
    1427, 
    1429, 
    1430, 
    1431, 
    1432, 
    1433, 
    1434, 
    1438, 
    1439, 
    1440, 
    1441, 
    1442, 
    1443, 
    1444, 
    1445, 
    1446, 
    1447, 
    1449, 
    1451, 
    1452, 
    1453, 
    1454, 
    1455, 
    1456, 
    1460, 
    1461, 
    1462, 
    1463, 
    1464, 
    1465, 
    1466, 
    1467, 
    1468, 
    1469, 
    1471, 
    1473, 
    1474, 
    1475, 
    1476, 
    1477, 
    1478, 
    1482, 
    1483, 
    1484, 
    1485, 
    1486, 
    1487, 
    1488, 
    1489, 
    1490, 
    1491, 
    1493, 
    1495, 
    1496, 
    1497, 
    1498, 
    1499, 
    1500, 
    1504, 
    1505, 
    1506, 
    1507, 
    1508, 
    1509, 
    1510, 
    1511, 
    1512, 
    1513, 
    1515, 
    1517, 
    1518, 
    1519, 
    1520, 
    1521, 
    1522, 
    1526, 
    1527, 
    1528, 
    1529, 
    1530, 
    1531, 
    1532, 
    1533, 
    1534, 
    1535, 
    1537, 
    1539, 
    1540, 
    1541, 
    1542, 
    1543, 
    1544, 
    1548, 
    1549, 
    1550, 
    1551, 
    1552, 
    1553, 
    1554, 
    1555, 
    1556, 
    1557, 
    1559, 
    1561, 
    1562, 
    1563, 
    1564, 
    1565, 
    1566, 
    1570, 
    1571, 
    1572, 
    1573, 
    1574, 
    1575, 
    1576, 
    1577, 
    1578, 
    1579, 
    1581, 
    1583, 
    1584, 
    1585, 
    1586, 
    1587, 
    1588, 
    1592, 
    1593, 
    1594, 
    1595, 
    1596, 
    1597, 
    1598, 
    1599, 
    1600, 
    1601, 
    1603, 
    1605, 
    1606, 
    1607, 
    1608, 
    1609, 
    1610, 
    1614, 
    1615, 
    1616, 
    1617, 
    1618, 
    1619, 
    1620, 
    1621, 
    1622, 
    1623, 
    1625, 
    1627, 
    1628, 
    1629, 
    1630, 
    1631, 
    1632, 
    1636, 
    1637, 
    1638, 
    1639, 
    1640, 
    1641, 
    1642, 
    1643, 
    1644, 
    1645, 
    1647, 
    1649, 
    1650, 
    1651, 
    1652, 
    1653, 
    1654, 
    1655, 
    1656, 
    1657, 
    1658, 
    1660, 
    1661
  ], 
  "heads": [[1316, 0, 0], [1320, 0, 0]], 
  "attrs": {"mxnet_version": ["int", 1001]}
}